agent2_checkpoint_actor.pth (torch_old, 142823 bytes, 6 tensors)

fc1.weight f4 [200, 24]
000000 a9 ac f0 3c 57 c7 3c bd 1b d2 b2 bd c5 62 2b 3d
       0.029379206 -0.046088543 -0.08731481 0.04184224
000010 34 15 85 3d 20 4b 9d bc 09 a8 e8 bc f8 63 53 bd
       0.06498185 -0.019200861 -0.028400438 -0.05160901
000020 d6 9a b7 3b 9c cb db bd 2b 83 84 bd e3 f2 ad 3d
       0.0056031747 -0.10732195 -0.06470331 0.084935926
000030 24 1b f0 3c 19 9d e4 3d ee 51 4e bd cd 66 e0 3d
       0.029309817 0.111627765 -0.050371103 0.10957108
000040 4f 0c 28 bd 76 49 2f 3d fd 25 2a bd 20 d8 3e 3e
       -0.041027363 0.042794667 -0.041540135 0.18637133
000050 ba dd 8e bd fa 24 c3 3d 57 d9 4a 3d af 9c e0 3d
       -0.06975885 0.09528537 0.049523678 0.10967385
000060 19 f6 ab 3c 62 bd 8a bd d1 ca 4d bc 56 21 a6 3d
       0.020991372 -0.06774403 -0.012560562 0.08111827
000070 9c 98 c2 bd 3f 20 c8 bc 7a a7 4f 3d 12 35 78 3d
       -0.09501764 -0.024429439 0.050696827 0.060597487
000080 44 34 b8 bc f8 a2 12 be 9f 01 d9 3c 35 58 ac 3d
       -0.02248586 -0.1431998 0.02649003 0.08415262
000090 ce 29 17 3d c8 c3 4f 3e 93 a4 ad 3c ab fd fd 3c
       0.036905102 0.20289528 0.02119664 0.031004747
0000a0 4a 74 83 bc da b2 9b 3c 8c fb 85 bd 7f d8 a1 3d
       -0.016046662 0.019006182 -0.065421194 0.079026215
0000b0 31 da 79 3c 83 74 74 3e 2a 7f c3 bd 33 18 70 3d
       0.015249775 0.2387257 -0.09545739 0.05861683
0000c0 96 ae 9c 3d 87 73 1b be 9d 54 5b 3d 79 59 7b bd
       0.07650487 -0.15180789 0.05354749 -0.061364625
0000d0 42 d9 23 be 29 29 b5 3d 46 55 87 3d c9 16 6d bd
       -0.16000846 0.08845741 0.066080615 -0.057883058
0000e0 da 91 f6 bc 5f da fa bd 3d 92 e0 bc 42 58 20 bd
       -0.030098844 -0.12248682 -0.027413482 -0.03914667
0000f0 35 8e 5f 3d bc 8f 60 3e 7c c5 29 bd 2f f4 03 be
       0.05457898 0.2192983 -0.0414481 -0.12886117
000100 93 7a 78 3c 8a 41 6e be cc c8 66 bd 48 20 42 3d
       0.015165943 -0.23267189 -0.05634384 0.047394067
000110 ae 26 6d 3e 1f 40 68 3e e0 13 6c 3d 0f 6a a8 3d
       0.23159286 0.2268071 0.05763614 0.08223354
000120 35 52 e6 bc 68 77 fe 3d 5a df ab bb e8 28 2c bd
       -0.028115371 0.12425119 -0.0052451314 -0.0420312
000130 ce 9e 05 be 20 3d f8 3a 92 e0 3d bc 5c 7c ab 3d
       -0.1304886 0.0018939115 -0.011589186 0.08373329
000140 58 da f4 bd ba da db 3d 02 78 3e ba 41 d3 dc 3d
       -0.11955708 0.10735078 -0.00072658074 0.10782481
000150 06 a5 84 bd 3f e3 fa bd 5a 5e cc bc c5 8b 68 3d
       -0.06476788 -0.12250375 -0.024947334 0.05677392
000160 09 29 3e bd ca 00 26 3d 05 f1 f1 bc ff 0c 4d 3d
       -0.046425853 0.040528096 -0.029533872 0.050061222
000170 c2 a7 53 bd 49 f9 5e be 32 1b cb bd 12 db a5 bc
       -0.05167366 -0.21774782 -0.099172965 -0.020246062
000180 27 5c da bc a8 2f 01 bc b7 4e 46 bd 25 bd bc bd
       -0.02665527 -0.007884897 -0.048414912 -0.09215764
000190 11 67 5d bd be a1 43 3e ef df 05 3d 83 c7 60 3b
       -0.05405337 0.19104668 0.032684263 0.0034298606
0001a0 88 c9 21 3d 86 78 d2 3d 0c 7d a5 3d ab af 07 3e
       0.039498836 0.10276894 0.080804914 0.13250606
0001b0 24 dc 18 3b 37 2c e3 bd cf 5e 68 3c 63 7e d6 3d
       0.0023324573 -0.11092418 0.01418276 0.10473325
0001c0 fe e6 d1 bd 0d f8 0b 3e 63 d0 8b bb 24 e5 29 bd
       -0.102491364 0.13668843 -0.004266785 -0.04147829
0001d0 ac d3 51 3d a4 4d 45 be 7a 0e 44 3d 7a 3d 60 3d
       0.051227257 -0.19267899 0.04786537 0.05474613
0001e0 1e e9 8f bc b8 2c 22 bd 3c 56 c7 bb 5d 65 40 3d
       -0.017567214 -0.03959343 -0.006083278 0.046971668
0001f0 b4 5b 07 3e 21 98 0c bd 8f 0d 0a bd 50 0f 36 bd
       0.13218576 -0.03432477 -0.033704337 -0.044448197
000200 ad 81 45 3d 3a e7 50 3d 17 80 d9 3b 5e ac 6e bd
       0.04821937 0.051001765 0.006637584 -0.05826985
000210 f8 6e 9a bd b5 3f 02 3e de 55 04 bc be ad 6f 3d
       -0.07540697 0.12719615 -0.008077113 0.058515303
000220 f6 51 9e 3c f8 de 4e bc bb ba 6d 3d fa 5c 66 3b
       0.019326191 -0.012626402 0.05803941 0.0035150633
000230 87 5e 99 be 5b 22 0b 3e cf 02 2e bd 5e 46 91 bb
       -0.2995493 0.13587324 -0.042483147 -0.0044334373
000240 f0 30 b6 3d fa a5 ea 3d fc ae 78 3d 74 d5 a8 bd
       0.08896053 0.11457439 0.060713753 -0.08243838
000250 55 88 27 3c 88 af 54 bc 38 b7 55 bd 77 9d 6d bd
       0.010225375 -0.012981303 -0.052176684 -0.0580115
000260 78 16 a7 3d 67 ec 9a 3d 99 4f 38 3d de de 6c be
       0.081585824 0.075646214 0.044997785 -0.23131892
000270 4d f6 8b 3d 9f cd e9 3d 57 8a 06 bd 2c 38 49 be
       0.068340875 0.11416172 -0.032846775 -0.19650334
000280 dd 1d 66 bc 0e 82 cc 3c c5 95 67 bd 60 69 f6 bd
       -0.014045206 0.024964359 -0.056539316 -0.120318174
000290 ee f1 95 3d 94 6f 42 3e 39 86 83 3b 69 67 3f be
       0.07321535 0.18987876 0.0040138033 -0.18691792
0002a0 2e 98 a7 3d 87 82 9f be b4 21 ef 3c b9 90 72 bd
       0.08183323 -0.31154272 0.029190876 -0.05922005
0002b0 05 98 86 be 95 5c c1 bd ec 46 a0 bd a2 8e 20 bc
       -0.26287857 -0.09441487 -0.07826027 -0.009799631
0002c0 ba d5 96 bd f6 d1 a9 be 4d 1b d0 bc 0a cd 19 3d
       -0.07364984 -0.33168 -0.025403643 0.037549056
0002d0 0c a3 e7 bd 51 91 30 3d 8c 82 22 3c b0 42 0a 3e
       -0.113103956 0.043107335 0.00991882 0.13502002
0002e0 7c f0 25 3d 47 e7 65 be 5e df 67 3d 9b 5a 4e 3e
       0.040512547 -0.22451507 0.056609504 0.2015175
0002f0 e1 56 0a 3d 27 e4 9f bc b0 80 8c bd b2 fa c4 3d
       0.03377426 -0.019517971 -0.06860483 0.09618129
000300 ee 99 79 3d a4 45 25 be bb 97 61 3c 3f 29 cb 3d
       0.060937814 -0.16139847 0.0137690855 0.099199764
000310 01 34 a0 3e 41 d5 9a 3d fa 0d b8 3c 19 17 74 3b
       0.31289676 0.07560206 0.022467602 0.0037245213
000320 4a 30 2e 3c 91 bb 9c bd d6 4d e8 bc 31 ea cc bc
       0.01063163 -0.07652963 -0.028357428 -0.025014015
000330 07 9b 17 3e 76 33 0e bd 29 3e b3 3c 99 83 ec 3c
       0.14805232 -0.034717046 0.021880226 0.028871344
000340 d7 db 91 3c 0b 74 6c bd 4b 43 bd 3c 28 ca af 3c
       0.017805023 -0.057727855 0.023103377 0.0214587
000350 da 93 86 bd 28 44 94 bd ce 01 a7 3d a4 30 5f bd
       -0.06571169 -0.07239562 0.08154641 -0.054489747
000360 25 db 85 bd 30 b2 69 3d ad 97 1a bd b2 7c 61 b8
       -0.06535939 0.0570547 -0.037742306 -5.3760312e-05
000370 c4 20 6f bd 3e 82 97 3d b6 cb 7d 3b b8 88 a4 bc
       -0.058380857 0.073978886 0.0038726158 -0.020084724
000380 03 d1 46 3d b6 b7 1c 3e 28 1b 8a 3d 28 97 32 3d
       0.048539173 0.15304455 0.06743461 0.043601185
000390 40 99 03 be 5e 58 f0 3d cc 9b 45 bd 4a eb 37 3d
       -0.12851429 0.11735605 -0.048244283 0.044902124
0003a0 30 6f 73 3d d5 a2 d3 3d bb ab 0d 3c 7f fa 07 3e
       0.05943221 0.10333792 0.008646901 0.1327915
0003b0 95 5b f4 bd 6a 73 e6 3d b6 74 64 bd 46 eb 9c 3d
       -0.119315304 0.11252482 -0.055775367 0.07662062
0003c0 f0 15 9f bd b0 01 2c be 7d de 23 bd 01 cd 44 bd
       -0.07767856 -0.16797519 -0.040007103 -0.04804707
0003d0 7c af a4 bc 0d 6a e6 bd b3 c4 11 bd 15 e9 99 bc
       -0.020103209 -0.11250696 -0.035587978 -0.0187879
0003e0 e1 56 03 be fb d4 92 be 20 90 94 3d 03 cc 95 3c
       -0.1282611 -0.28678116 0.07254052 0.018285757
0003f0 7c 2d aa 3d c1 d9 df 3d 26 cc 43 bd 14 1b 9a bd
       0.08309457 0.10930205 -0.047802113 -0.07524696

fc1.bias f4 [200]
000000 05 07 04 3e 6a 23 17 bd 3e 68 39 3e 33 bb e0 3d
       0.12893303 -0.036899008 0.18106171 0.109732054
000010 60 11 1c be ce 9f 17 be 38 d2 c2 bd eb 2d 58 bc
       -0.15241003 -0.14807054 -0.09512752 -0.013194541
000020 ee 58 b3 3d 42 25 6c be 29 5e 2f be 84 54 89 3c
       0.08757196 -0.23061088 -0.17125763 0.016763933
000030 aa 2a 98 3e 94 3f bd bd ea 9b 91 3e 87 64 41 3e
       0.2972005 -0.09240642 0.28439265 0.18886004
000040 4f 02 43 bd c4 90 aa 3e b9 4d f4 3c 58 8b f8 bd
       -0.047609624 0.33313572 0.029822217 -0.12135953
000050 bf e4 85 ba 16 1d b8 3d 60 54 04 3e 2a 2d 38 be
       -0.0010215266 0.08989923 0.12922812 -0.17985979
000060 7d 7d d7 bd 5a 58 da 3d bf 9b 6f 3d 48 c0 11 3d
       -0.10521982 0.10661383 0.05849814 0.035583764
000070 6b f1 0e be 81 3a 8c bd cf 1c ad 3c 78 6e c2 bc
       -0.13959281 -0.06847096 0.021131901 -0.023734316
000080 4f 36 d9 3d 9d 52 81 be 53 6d 7b 3d 1a 29 89 3e
       0.10606062 -0.2525834 0.061383557 0.2678917
000090 72 f9 c3 bd ae ec 42 be 9a 14 a8 3d a0 84 70 3e
       -0.09569062 -0.19035599 0.082070544 0.23488092
0000a0 7c 3b 4c be 4a 49 4e be 14 79 ff bd e2 58 b5 3e
       -0.19944566 -0.20145145 -0.12474266 0.35419375
0000b0 8e 10 22 be 0d f2 e6 3d eb 7b 33 3e cd 05 79 3d
       -0.15826628 0.11276636 0.1752774 0.060796548
0000c0 bb f3 d9 3c 69 f9 b0 bc 94 ad 2b 3b 35 72 9b 3e
       0.026605478 -0.021603303 0.002619599 0.3036057
0000d0 f1 b1 ab 3c 41 c4 3d 3e f8 f4 fb 3d 12 ec cc bd
       0.020958873 0.18531896 0.123025835 -0.10005964
0000e0 72 2f 3d 3d f3 8a 8a 3e ea 8d 1a bd 7c 2b f9 bd
       0.046187826 0.27059135 -0.037732996 -0.12166497
0000f0 ea 0c 80 be dd 2d 60 3d 1b 1b 8c 3e 3b fa 9c bd
       -0.25009853 0.05473124 0.2736443 -0.07664915
000100 7f 61 86 bd 9a 0b 20 be a7 a5 33 be 8b ab 29 3e
       -0.06561565 -0.15629426 -0.1754366 0.16569345
000110 25 2b 70 bc 06 ad c8 3d d8 bc aa 3b 8a fb 77 3e
       -0.014658724 0.097986266 0.0052105 0.24217048
000120 11 bb f3 3d b5 04 f1 3d 23 f1 d9 3d ba 89 93 bd
       0.119009145 0.11768476 0.10641696 -0.07204004
000130 66 bd d7 3c 1a 6d 69 bc 2b d3 ff bd ca 76 15 3e
       0.02633543 -0.014247203 -0.12491449 0.14596096
000140 21 3e 1c 3e e2 d2 62 be 39 87 1a be 27 1f ad bd
       0.15258075 -0.22150758 -0.15090646 -0.084532075
000150 d5 1f 6e 3e c9 4d 0b 3e bb e8 1e be 2f de 40 3d
       0.2325433 0.13603891 -0.15518467 0.04708689
000160 52 af 2e be 7d b6 3d 3e 38 34 21 be 73 ae 60 be
       -0.17059067 0.18526645 -0.15742576 -0.21941547
000170 c5 ad 81 be fd 7f 0f 3e 95 d9 36 be 57 f2 31 3e
       -0.25327888 0.14013667 -0.17856438 0.17377602
000180 86 68 18 3e 16 62 05 be ae 9a fb bd b7 c6 c8 bd
       0.14883623 -0.13025698 -0.12285362 -0.09803527
000190 2f b1 12 3d 1b d2 c3 bd 1a 0a db bd 83 75 83 bd
       0.035813507 -0.09561559 -0.10695286 -0.06418898
0001a0 86 81 4f bd 54 32 f9 bd a2 b4 17 be bd 87 4e 3e
       -0.050660633 -0.121678025 -0.14815 0.20168968
0001b0 08 31 ed 3c 80 88 59 3d c0 f9 75 be 12 de 52 be
       0.028954044 0.053108692 -0.24021053 -0.20592526
0001c0 b8 ce 9f bd 08 08 b8 bd 5a d0 4e be 21 ea 81 be
       -0.078031 -0.08985907 -0.20196667 -0.2537394
0001d0 c5 3c d2 3c 2e bb 87 be d2 24 9a 3d 7a 02 05 3e
       0.025663743 -0.26509994 0.07526554 0.12989226
0001e0 52 64 5b 3e 4b 02 ae be fc ba fd 3d ce 93 94 3d
       0.21424988 -0.33986124 0.1238918 0.07254754
0001f0 88 a0 fb 3c bf bd e3 3d 88 ac 61 3e 96 8a 59 be
       0.030716196 0.111201756 0.22038472 -0.21244273
000200 a4 1d 18 be b6 77 1b 3e 18 24 b3 3d 5d e7 5c be
       -0.14855057 0.15182385 0.08747119 -0.21572633
000210 f2 13 0c 3d b4 59 f6 3c 1f 0f 29 3e 01 df 56 bd
       0.03419871 0.03007207 0.16509674 -0.052458767
000220 66 84 00 3d eb 03 bb bd 9e 13 b7 bc 5f 3c a3 3d
       0.031376265 -0.09131607 -0.022348221 0.07970499
000230 40 77 c4 bd ba 2c 2b be 39 8f ca 3c 08 7e 4d 3e
       -0.09593058 -0.1671628 0.024726497 0.20067608
000240 2f 93 ba 3d a1 97 bc 3d 7f 61 7c 3e 1b 21 02 be
       0.09110104 0.092086084 0.24646567 -0.12707941
000250 dc 53 dd bd ea 9f a3 bd 01 01 28 3d 5a ea ad 3d
       -0.108070105 -0.079894856 0.041016582 0.08491965
000260 47 a0 0a 3d 16 b3 41 3e 43 01 bd bc 68 03 79 be
       0.03384426 0.18915972 -0.02307189 -0.24317706
000270 de 2c 18 bd ae 66 12 3d a7 ad 6c 3e 16 ca dc bd
       -0.037152164 0.035742454 0.23113118 -0.10780732
000280 6e e4 b8 37 fe fa f4 3d 2c c4 10 bd 7f 46 3d be
       2.204088e-05 0.119619355 -0.035343334 -0.18483923
000290 5c 62 d4 3d 96 72 5c be fc 61 94 bd 00 08 60 3d
       0.10370323 -0.21528086 -0.072452515 0.05469513
0002a0 95 8e 47 bd 97 1b 01 3e 46 db 86 bc c4 7c 47 be
       -0.04871996 0.12608181 -0.01646198 -0.19481188
0002b0 8a 68 21 3e ce e0 e2 be d5 5f 0b 3e 45 4f e8 bd
       0.15762535 -0.44312137 0.13610776 -0.113432445
0002c0 d6 92 f1 bc ed ae 27 3e dd d5 a9 be 9d e3 00 3e
       -0.029488962 0.16375323 -0.33170977 0.12586828
0002d0 3c 9b 63 3e 4f a0 30 3e a8 e5 89 bd 8e 5c 31 3d
       0.22227186 0.17248653 -0.067332566 0.043301158
0002e0 5c 15 0c 3f 78 5a 93 be fc d9 97 3d 36 2d 30 be
       0.5472009 -0.2877996 0.07414624 -0.17204747
0002f0 31 f4 3a bd 28 55 8e be 31 fb 45 bd 26 67 9a bd
       -0.045643035 -0.27799344 -0.048335258 -0.07539205
000300 e9 54 af 3d ca 6e b2 bd 60 fa 10 be 40 dd 9a bd
       0.08561117 -0.087125376 -0.1415801 -0.07561731
000310 c1 24 28 be 0d c0 b5 bd 29 37 16 3e 22 4a 21 be
       -0.1642027 -0.088745214 0.1466948 -0.15750936

fc2.weight f4 [150, 200]
000000 c1 5e 27 3d 21 da 92 3d 87 26 2e 3e 3e e7 78 bd
       0.04086185 0.07170511 0.17006885 -0.060767405
000010 c2 68 24 3e 30 3c 1b bf 1a c0 54 bd 4c 04 82 be
       0.16055587 -0.60638714 -0.051941015 -0.25393903
000020 7d aa 50 bd d3 57 03 3c 4f 22 2e bd af f9 ba bd
       -0.05094384 0.008016544 -0.042513188 -0.091296546
000030 40 eb 3b bd ad 8d 41 3c 6f 32 78 bc f8 0b f6 bd
       -0.04587865 0.011813563 -0.015148743 -0.120140016
000040 4a 8b d2 bd 61 b7 c2 bd fb ef 0f 3e 41 d3 da 3d
       -0.102804735 -0.09507633 0.14056389 0.10684825
000050 1a a6 8f 3d ff 46 e7 bc a1 57 71 be c4 32 24 3e
       0.07014103 -0.028232096 -0.23568584 0.1603499
000060 08 d1 81 3d f8 2f a7 3d ba 97 13 3e 05 6d 96 3d
       0.06338698 0.08163446 0.14413348 0.073450126
000070 81 cb ea bd 1a 5b d9 bd 27 04 db 3b 8f f2 5c bd
       -0.114645965 -0.10613079 0.0066838446 -0.05394226
000080 90 bf 93 3d dd ba 36 be 07 86 b7 bd 57 d3 ac 3d
       0.07214272 -0.1784472 -0.089611106 0.084387474
000090 91 8b 3b 3d cd 46 6e bd 61 5e 92 bd 51 3e 9e bd
       0.045787398 -0.05817299 -0.071469076 -0.0772673
0000a0 4d f5 4e bb 08 4e 25 3e d0 72 d4 3d 12 fe ca bd
       -0.0031579316 0.16143048 0.10373461 -0.09911741
0000b0 0e 89 2a 3c d3 23 8f be 92 ac b0 3d d4 46 ab bd
       0.010408653 -0.2795702 0.08626665 -0.08363119
0000c0 74 55 3b bd 76 3a c6 bd 3f c4 4f 3d 16 56 d9 bc
       -0.04573579 -0.09679119 0.050724264 -0.026530307
0000d0 bd 11 1e be 8b 2e 1e 3d 5b 8d 81 3d 8f 86 8f bd
       -0.15436454 0.038618606 0.063257895 -0.07008087
0000e0 8e 84 0a be ad eb 93 bd c9 96 0b be 90 de 83 3d
       -0.13527128 -0.07222686 -0.13631739 0.06438935
0000f0 65 52 a2 3c 01 2b 64 3c f9 a2 d8 bd 94 91 af bd
       0.01981468 0.013926269 -0.105779596 -0.08572689
000100 fa f0 00 bd 03 f3 33 bc 08 7f f2 3d 62 13 f4 3d
       -0.031479813 -0.0109832315 0.118406355 0.119177595
000110 9f 13 eb bd 96 7c 81 3c 78 41 cb bd 63 26 4f be
       -0.11478352 0.015806478 -0.099245965 -0.20229487
000120 c0 9e 6c be 42 5e ab bb 53 71 ff 3d 51 3f 3b bd
       -0.23107433 -0.0052297423 0.12472787 -0.04571468
000130 14 1e 9e bd 3d 93 87 bc 66 63 2e 3b e9 56 c0 3c
       -0.07720581 -0.0165497 0.002660954 0.023478942
000140 de 99 61 bc 56 1f a5 bd b4 f1 ca 3d c1 8a 78 bc
       -0.013769595 -0.080626175 0.099093825 -0.0151698
000150 f7 b2 ff 3d e6 38 94 3c 9a ca b2 3c f9 2b 5f 3d
       0.12485307 0.018093538 0.021825124 0.054485295
000160 2c d7 48 3c 28 55 17 bd ff c2 90 be 7a 35 53 3d
       0.012258332 -0.036946446 -0.2827377 0.05156467
000170 99 92 b2 bd 98 b2 b7 3c 55 46 1b 3e 2b 66 d3 3c
       -0.087193675 0.022424027 0.15163548 0.025805553
000180 1d fe b3 be 86 33 28 3e 53 2f c5 3d 60 41 a4 bd
       -0.3515481 0.16425905 0.09628167 -0.08020282
000190 d7 3f d8 bc 0e f7 9f 3d 4d 2e cd 3d e5 d5 01 3e
       -0.026397629 0.07810794 0.10018597 0.1267925
0001a0 af 7c 8e 3d 60 6d ca bc 9d d5 10 bd df d6 96 bc
       0.06957375 -0.024710357 -0.035359967 -0.018413005
0001b0 8a 22 c8 bc e7 93 af bd 42 d6 9f bb a5 9f 36 bd
       -0.024430532 -0.08573132 -0.0048778364 -0.044585843
0001c0 83 92 03 be a2 b3 8f bd e7 15 e9 bd 5f 85 df 3c
       -0.12848859 -0.07016684 -0.11381131 0.027285276
0001d0 00 54 24 be 0e 99 27 3e 48 67 1f 3d dd 48 59 3b
       -0.16047668 0.1636698 0.038916856 0.0033155002
0001e0 ca f7 18 be 5f 5a 13 bd 86 35 80 3c 03 c2 61 bc
       -0.14938274 -0.035974856 0.015650522 -0.013779166
0001f0 a9 c7 ed 3d 67 0e f7 bd d2 02 20 be 6d be d1 bd
       0.11610348 -0.12063294 -0.15626076 -0.10241399
000200 ca 9a 23 3d 72 cd b7 bd b2 81 9d bd 8d 85 40 be
       0.03994254 -0.089747325 -0.07690753 -0.18800946
000210 0d ae 27 bc 51 b8 53 3d 85 ca 95 bd 55 b6 00 3e
       -0.010234368 0.05168945 -0.07314018 0.12569554
000220 90 7d b4 bc a1 dc 18 3e d6 f6 dc 3c 9e d9 e7 3d
       -0.02203253 0.14927913 0.02697317 0.11320804
000230 93 63 17 3e 2b a2 2e 3d af 58 c3 3d ec 4c 09 3e
       0.14784078 0.042635124 0.095383994 0.1340825
000240 c5 6e 3a 3b 57 c9 41 bd df 8b 63 3c 37 39 b5 3d
       0.0028447371 -0.047311153 0.013888328 0.088488035
000250 0a 10 c4 3c 9d dc 37 bd cf af ae bc 64 ac f3 3c
       0.02393343 -0.044888128 -0.021324066 0.029745288
000260 43 9e c3 bd 1a 6c 9c bd d3 8e 20 3c 36 75 01 be
       -0.095516704 -0.07637806 0.009799677 -0.12642369
000270 45 bb af bd 97 7c 9b 3d 6f 7b 4f 3c 06 4d f6 3d
       -0.08580641 0.07592123 0.012663706 0.1202641
000280 b0 82 20 be fb 38 8a be 3a b7 1c bb dc af 37 3d
       -0.15674853 -0.26996598 -0.0023912922 0.044845447
000290 e0 4c 07 be 48 99 06 3e 49 fe ca bc 01 25 4e 3d
       -0.13212919 0.1314441 -0.024779456 0.05032826
0002a0 e0 18 10 be 00 19 38 bb 64 85 bf 3d 14 95 b0 3d
       -0.14071989 -0.0028091073 0.09351614 0.086221844
0002b0 2e e1 21 bd 73 ac f8 3d b7 ec 88 3d ef be 4b 3e
       -0.03952139 0.12142267 0.06685775 0.19897054
0002c0 aa 9b eb 3d 7c 1a f1 3c 7c b3 65 be 30 e2 d3 bd
       0.115043 0.029431574 -0.22431749 -0.10345876
0002d0 ab b5 8b 3d 34 85 53 be 66 da 08 be 60 de f4 bc
       0.0682176 -0.20656282 -0.13364562 -0.029891193
0002e0 e1 47 18 bd 3f 0f 9e bd 31 7e 2b bd 1d 6a ed be
       -0.037177924 -0.07717752 -0.041868392 -0.4637002
0002f0 8d be 81 3d 85 8a e6 3d a9 96 5e bd 0c ea 90 3d
       0.06335173 0.11256889 -0.0543429 0.07075891
000300 47 2b 3c 3d 9e d8 dc 3c 8a 32 1c bc b4 58 b4 bd
       0.04593971 0.02695876 -0.009533534 -0.08805981
000310 7a 78 b2 bd 80 95 0e 3d 31 68 54 b8 16 01 e3 bd
       -0.08714385 0.034810543 -5.0641775e-05 -0.110841915
000320 ef ed bd bd 07 53 04 3b ef 3b d5 bd 2d 38 94 be
       -0.09273898 0.002019109 -0.10411822 -0.2894911
000330 ff 65 f9 3d 43 9f 86 be 3d b2 75 bd f2 1a 1a bd
       0.12177657 -0.26293382 -0.059984434 -0.037623353
000340 b5 0a 71 3d 21 98 d6 3c 9b 06 cc bc cc 77 8e bd
       0.0588481 0.026195588 -0.024905493 -0.06956443
000350 eb 52 6b bd 87 bd 8f bd be c5 69 bd 30 bb b8 bc
       -0.057452124 -0.07018571 -0.057073347 -0.022550195
000360 3c 2f 9f bd 49 e0 86 bd 4e ba ad 3d d2 28 b1 3d
       -0.07772681 -0.06585748 0.084828004 0.08650364
000370 a6 e6 70 bd f0 d1 2f 3c 3b 43 1b 3e 5b d8 e1 3d
       -0.058813713 0.010731205 0.15162365 0.11027595
000380 57 c6 3b bd b7 d2 84 bd a8 4a 20 bd 26 31 72 3d
       -0.04584345 -0.06485503 -0.039133698 0.059128903
000390 f9 f8 7d bc 1f dd 37 bd 35 21 e8 3c 94 3f ed bd
       -0.015501254 -0.044888612 0.028336147 -0.11584392
0003a0 62 24 04 3d 76 70 7c be 26 41 d6 bc cb 06 97 3d
       0.03226126 -0.24652275 -0.026154112 0.073743425
0003b0 0d b0 79 3d 0e 4f 6b bd 67 77 2b 3d f9 7a bc bc
       0.06095891 -0.05744844 0.041861918 -0.023007857
0003c0 a4 c3 f6 3d ae 95 fc 3c 9c c6 55 3e 1f ee 92 bd
       0.12049034 0.030833092 0.20876545 -0.07174324
0003d0 ac fd 91 bd 7b 4a 26 be e9 15 b0 3d d6 66 64 be
       -0.07128462 -0.1623935 0.08597929 -0.22304854
0003e0 86 f1 e5 3c 19 c6 2f be 8a a8 f2 3c d3 c5 c5 bd
       0.028069269 -0.17165412 0.029621381 -0.096568726
0003f0 7c ea 61 bd b9 12 b9 bd 3e 55 58 bd 92 28 a2 bd
       -0.055155262 -0.09036774 -0.05281567 -0.079178944

fc2.bias f4 [150]
000000 3a c0 2f be 56 cc 95 3d 11 4e 6e 3c a0 1f ad 3d
       -0.17163172 0.073143646 0.01454498 0.084532976
000010 70 cc 4c 3d 38 9f 14 be 60 a2 7b 3d 24 94 fd 3c
       0.049999654 -0.14513862 0.06143415 0.030954428
000020 68 73 b7 bd 44 9b 02 3d c7 12 f1 3d f8 09 c9 bd
       -0.08957559 0.031886354 0.117711596 -0.098163545
000030 70 1c 99 3c fd 74 31 3d bb ac d6 bc e1 ef 95 bd
       0.018690318 0.04332446 -0.026205411 -0.07321144
000040 59 d4 d5 3d 02 66 76 bd 5b bf e1 bc 7e c4 47 3e
       0.10440893 -0.060155876 -0.027557066 0.1950855
000050 86 2f f3 3d 96 d0 44 3c 09 4a ba bc 26 7b b1 3c
       0.11874299 0.012012621 -0.02274038 0.021665167
000060 96 fa 76 3c 65 9c 6c 3d 8d e6 68 3d bf 4c 2c 3e
       0.015074393 0.057766337 0.056860495 0.16826151
000070 01 f5 0e 3d 2e ad ff 3d 1c 87 ab bd d5 38 58 3c
       0.034901623 0.12484203 -0.083753794 0.013197144
000080 03 0d 2e 3d 1f 22 be bd 0f f3 32 bd 99 77 db bd
       0.042492878 -0.09283852 -0.04368883 -0.10716171
000090 33 77 b5 3d 78 f3 09 bc fd 8b 09 bd ac 44 d7 bd
       0.08860626 -0.008419864 -0.03358077 -0.10511145
0000a0 a9 8e 07 3e d3 22 b5 bd 5c 16 ad bd ad 6c ac bd
       0.13238014 -0.08844533 -0.0845153 -0.08419166
0000b0 5a a4 3c 3d 9f aa 13 3e ae d1 ba 3d 71 8d 3f bd
       0.046055175 0.14420556 0.091220245 -0.04676575
0000c0 20 41 01 3e 1a 64 d2 3d 84 51 53 bb 63 3c cc bd
       0.126225 0.10272999 -0.0032244632 -0.09972455
0000d0 a9 04 4c ba 85 cc 53 3e 79 7e 5b bb 9d 6f dc 3b
       -0.0007782677 0.20683487 -0.0033492132 0.0067271725
0000e0 8c 69 d1 3c 93 cf 9c 3d cd 76 99 3d 3e ce d8 3d
       0.025563024 0.07656779 0.074933626 0.105862126
0000f0 b9 b6 b1 3d dc 98 ed 3d 37 79 46 3b 90 22 3d bd
       0.0867743 0.11601421 0.0030284652 -0.04617554
000100 7c 0e 9e 3d cb 21 1e 3e 35 5d 90 bc 5e b8 b4 bd
       0.077176064 0.15442578 -0.01762257 -0.08824228
000110 0a 40 83 bd 2c ef 39 3d ab 4d 19 be 51 ee 8e 3c
       -0.06408699 0.045394108 -0.14971034 0.017447622
000120 79 e3 75 3c c8 60 a0 bd ce ae d6 3d 0a 4b 12 be
       0.015007847 -0.078309596 0.1048256 -0.14286438
000130 42 60 10 bc 59 5f d9 3c 26 03 fe bd b6 1e 74 3d
       -0.008812012 0.026534723 -0.12402944 0.0595996
000140 48 66 88 3d cb 74 8c bd a7 9d 9c bd f0 8a 5b bd
       0.066601336 -0.06858214 -0.07647257 -0.053599298
000150 ca 39 f7 3d 77 90 e3 3d 98 39 96 3d 9c 48 a2 3d
       0.12071569 0.11111539 0.07335204 0.079240054
000160 ea ad 99 bd 86 34 88 be 3d 08 7c bc 01 a3 05 bd
       -0.075038746 -0.26602572 -0.0153828235 -0.032626156
000170 94 62 5b bd 4c 03 6b 3c c6 eb af 3d 2e fe 14 3d
       -0.05356081 0.014344048 0.08589892 0.036375217
000180 81 d2 d6 bd 26 77 cb bd e1 b2 a5 bd c1 0b 1c 3c
       -0.10489369 -0.09934835 -0.08090759 0.009524287
000190 e3 84 1a 3e 88 18 b4 bc 8e 83 6c bd 51 f4 f4 3d
       0.15089755 -0.021984354 -0.057742648 0.11960662
0001a0 86 56 65 3d f1 d5 61 3d 2f 1f ff bd 6e 70 52 3d
       0.05599072 0.05513567 -0.1245712 0.051376753
0001b0 d4 55 36 be 90 cd 25 bd db 21 98 3d a4 8f 6c 3d
       -0.17806178 -0.040479243 0.074283324 0.057754174
0001c0 09 60 57 3e 95 68 1f 3d 05 4b 01 3e 2f b2 df 3b
       0.21032728 0.038918097 0.12626274 0.006826661
0001d0 43 81 e0 3d 1b 52 d3 bd 8f 0e cd 3d ec 47 a2 bc
       0.10962155 -0.10318395 0.100125425 -0.019809686
0001e0 e9 fb 09 3d f3 a9 0b 3d d7 17 01 be 09 4e 70 3c
       0.033687506 0.034097623 -0.1260675 0.0146670425
0001f0 48 be 15 3d 8f ad 7f 3d 76 ef c6 bc 7a fd 21 be
       0.03655842 0.062421378 -0.024284106 -0.1581935
000200 79 94 9e 3d 79 29 00 be 19 7f 0a bd 75 a6 b4 3d
       0.07743163 -0.1251582 -0.033812616 0.08820812
000210 f6 38 d5 bd ac 2e de bd c9 c0 e5 bc 28 5b 88 3d
       -0.10411255 -0.10848746 -0.028046029 0.06658012
000220 2d a7 38 3d 0b fd b0 bc e8 89 48 3e 1d e7 dc 3c
       0.045081306 -0.021605035 0.19583857 0.026965672
000230 83 45 9b 3d 93 19 32 bc 65 b2 7a bd 8f 81 06 be
       0.07581618 -0.010870355 -0.061205287 -0.1313536
000240 6a 27 ad 3c 48 f7 8e 3b ef 43 81 3d 1c dc 03 bd
       0.021136958 0.0043629743 0.063117854 -0.032192335
000250 16 f2 bd 3d f3 e0 d2 3c
       0.0927469 0.02574203

fc3.weight f4 [2, 150]
000000 d8 b5 2b 3e 84 68 28 3e 15 3e 6d bd c9 31 a9 3d
       0.16768587 0.1644612 -0.057920534 0.08261449
000010 9e 10 57 3d 36 ee 93 3e 7d fd 4a 3d c6 7f 3f 3e
       0.05250608 0.28892678 0.04955815 0.18701085
000020 e5 8c 97 3c 97 53 bc 3d 00 03 c5 3d 27 f6 60 3e
       0.018499801 0.09195631 0.09619713 0.219689
000030 a9 e4 7e bd 19 9c b4 bc ec 93 8a 3e ec b3 e1 3d
       -0.062229786 -0.02204709 0.2706598 0.110206455
000040 7f 48 c1 bc fa e5 a8 bd 2a 20 3e bd 2b 72 5c bc
       -0.02359414 -0.082469895 -0.046417393 -0.013454954
000050 22 9f f6 3d 0a 71 01 bd 74 24 c0 3d 11 78 a2 bd
       0.12042071 -0.031601943 0.09381953 -0.07933057
000060 27 14 d6 3d 01 b2 3c 3d a6 cf c0 3d 87 5f ff 3c
       0.104530625 0.046068195 0.09414606 0.03117348
000070 94 66 84 bd af b5 1c 3e 29 40 62 3e be b4 97 3d
       -0.06464878 0.15303682 0.22094788 0.07407521
000080 66 5b 06 3e a2 41 ef 3d 87 42 c1 3e f3 5b b7 3d
       0.13120803 0.1168244 0.3774607 0.08953085
000090 6b c5 2a 3e 41 a3 84 3d b4 4e c3 3d 8e 43 42 bd
       0.16676871 0.06476451 0.09536496 -0.047427706
0000a0 7d ed f0 3d e9 1b 89 bd 25 60 6c bd 69 89 21 bd
       0.11764047 -0.066947766 -0.057708878 -0.039437685
0000b0 21 aa 08 bd c0 1f e9 3d d2 ad 05 3e e5 5b 80 bd
       -0.033365373 0.11383009 0.13054588 -0.062675275
0000c0 96 4f d8 3d 7b 98 6f 3d 61 41 97 3d 34 5e 53 3d
       0.10562055 0.058495026 0.07385517 0.05160351
0000d0 a6 fe be 3d 67 ed 7c bb f1 69 f0 3d 2e b9 43 3e
       0.09325914 -0.0038593651 0.11738957 0.19113609
0000e0 8d 0e 80 bd 6d 3f b1 3d 60 1f 38 3d 3e 78 8f 3d
       -0.06252775 0.08654676 0.044951797 0.07005356
0000f0 9d 33 c1 3d 33 4d 0a 3e 05 1e b6 3d 90 9c 60 3d
       0.094336726 0.13506012 0.088924445 0.05483681
000100 ee 9a 8c 3d 95 c2 70 3d 31 6e df 3d 6f c2 d9 3d
       0.06865488 0.058779318 0.10909689 0.106327884
000110 6a 71 ea 3d 8c 07 8b 3e 84 68 9b bc a1 63 88 bd
       0.11447413 0.27154195 -0.018970735 -0.06659628
000120 a7 c6 8a bd b1 c8 77 bd 0d 30 79 3d ac df db 3e
       -0.06776171 -0.06049413 0.06083684 0.42944086
000130 f7 85 51 3e 44 3a 43 bd 8c ce 2a bd 22 ce ff 3d
       0.2046126 -0.04766299 -0.041700885 0.124904886
000140 36 9d 9e 3d 0f ec 14 3f 45 62 8b bd fb 96 44 bd
       0.07744829 0.58172697 -0.06805853 -0.04799555
000150 28 46 45 bd 54 6a f7 3d b8 63 03 3e 7a 63 1b 3e
       -0.04816261 0.12080827 0.12831008 0.15174666
000160 02 83 bd be 17 f0 0b be 47 dd 49 3c a9 93 45 3e
       -0.37014014 -0.13665806 0.012320823 0.19294609
000170 3a 12 6c bd e0 b5 31 bd 2d 0b 00 3e d7 a9 7e 3e
       -0.05763457 -0.04338634 0.12504263 0.24869476
000180 20 41 4a bd da f9 87 3e 34 81 81 bd f6 3e 0d 3e
       -0.049378514 0.2655781 -0.06323472 0.13793549
000190 92 f7 5b 3e f1 a1 5b 3d d2 dd 0b 3d 97 7c 6b 3d
       0.2148116 0.053621236 0.03414709 0.057491865
0001a0 02 7a ef 3d aa 25 85 3d 16 ca 98 3d 31 77 c9 3e
       0.11693193 0.065013245 0.0746042 0.39348748
0001b0 49 f3 3c 3d 80 82 5a bd 66 52 80 3d 5b 19 79 3d
       0.046130452 -0.05334711 0.06265716 0.060815196
0001c0 5d af d6 3c fe cc 2d 3e 0e a8 00 3e d2 79 e0 3d
       0.026206667 0.1697273 0.12564108 0.109607354
0001d0 0d ad b1 3d 74 17 44 bd 55 ca 0c 3e c0 84 4c 3e
       0.08675585 -0.04787393 0.13749059 0.19972515
0001e0 ab 4a 53 3e 4f 2f f4 bc 2d 41 85 3d 0d 90 50 3e
       0.20633952 -0.029807715 0.06506572 0.20367451
0001f0 70 62 39 3e ec 47 d0 3d 28 b3 1b bd 02 44 ab 3c
       0.18103957 0.10169968 -0.038012654 0.020906452
000200 09 1a 02 bd ad e7 84 3e ac ac 3e bd d7 91 b1 3d
       -0.03176311 0.25958005 -0.04655139 0.08670395
000210 ab a0 f0 bb da b4 02 3d 23 f3 05 3d 18 36 6a 3e
       -0.007343372 0.031910755 0.032702576 0.22872198
000220 d3 88 89 bd d0 49 9e 3e 43 0a 08 3d 16 c7 02 3e
       -0.0671555 0.3091569 0.03321291 0.12771258
000230 07 63 ba 3d 1d 56 d0 3d a9 50 72 bd 18 a3 12 3e
       0.09100919 0.10172675 -0.059158955 0.14320028
000240 b5 ad f1 bc e5 04 ac bd 87 bc 7a 3e 45 4f 47 bd
       -0.029501775 -0.08399371 0.2448598 -0.04865958
000250 8d 0a b0 3d 46 2e 86 3d 27 26 ad 3e d4 0b b1 bd
       0.085957624 0.06551795 0.3381817 -0.08644834
000260 f6 53 18 3d 0c ff cf be 90 3d e0 3d d2 0f 8f 3e
       0.037189446 -0.40624273 0.10949242 0.27941757
000270 7f 5c 56 bc 14 fe 8e 3e 1e 59 82 3d a9 f3 b1 3d
       -0.013083576 0.2792822 0.06364654 0.086890526
000280 9b 3d f8 bd 9a 2d 99 3e 33 1a 26 3d 02 d5 41 bd
       -0.12121125 0.29917604 0.04055233 -0.04732228
000290 90 e1 61 bd 28 50 39 3e a4 2b ae bd 93 46 8c 3b
       -0.055146754 0.18096983 -0.085044175 0.004280874
0002a0 be 44 8e 3c fc a5 ca be a9 ca 11 bf fa c0 4c bd
       0.017366763 -0.3957976 -0.5694986 -0.049988724
0002b0 15 03 96 bb ec 3e 03 3e 78 07 29 3e 95 32 47 3d
       -0.004578004 0.12816972 0.16506755 0.048632223
0002c0 a9 9b 5a 3e 7d c6 cf be 6b 1d 31 3d 2a 3f 0d be
       0.21348442 -0.40581122 0.043240946 -0.13793626
0002d0 a9 03 f9 3e 19 52 10 3e eb b0 0d be 44 05 c2 3e
       0.48635605 0.14093818 -0.1383702 0.37894642
0002e0 ce 9f f7 bd 64 48 46 3e f1 1d 55 be b8 0d 0d be
       -0.12091027 0.19363552 -0.20812203 -0.13774765
0002f0 b0 20 3a 3c 60 9d 24 3d 19 06 04 3f ee ba 39 3d
       0.011360332 0.040189147 0.51571804 0.045344286
000300 d1 21 27 3c 65 fc 18 bc 08 c1 11 bd 13 8d cf be
       0.010200934 -0.009337519 -0.03558448 -0.4053732
000310 f0 91 0a be 52 10 cc 3c 62 3f 23 be 65 d4 be bd
       -0.13532233 0.024910126 -0.15942147 -0.09317855
000320 ee e9 59 be 2f d5 07 3e 11 91 84 be df 85 bc be
       -0.21280643 0.13264917 -0.25891927 -0.36820886
000330 aa 6e 92 3d a1 4c 88 bd b4 47 10 3d 0d 87 37 be
       0.07150014 -0.06655241 0.03522463 -0.17922612
000340 16 a8 03 be c8 d1 82 be c8 04 b5 be 58 21 28 be
       -0.12857088 -0.25550675 -0.3535521 -0.1641897
000350 33 76 1d bc 31 5e 87 3e 58 be 20 be e9 ac 5e be
       -0.0096107 0.2643905 -0.1569761 -0.21745647
000360 ae a2 00 3e 9d 65 92 3d fa de 3b 3d b5 90 25 bc
       0.12562057 0.071482874 0.045866944 -0.010105302
000370 5d db d9 3d 6f fe 70 3d 8e d1 05 3d 1b f6 c6 3d
       0.10637543 0.058836397 0.03267055 0.0971491
000380 71 39 ef be b3 5b e5 3e 50 ec d3 3e 26 71 27 3d
       -0.46723512 0.44796523 0.4139123 0.04087939
000390 b7 07 1b 3d 56 d6 69 be 35 2b 95 bd 94 4f 4e 3e
       0.037849154 -0.22835669 -0.07283632 0.20147544
0003a0 48 43 39 bc 17 ad 15 bd d4 25 54 be 89 9b 4c 3e
       -0.011307545 -0.036542024 -0.20717555 0.19981207
0003b0 bb 65 92 3d 6e 91 34 bd cf df 99 bd 5d 7b 8d 3e
       0.0714831 -0.044084005 -0.07513391 0.2763318
0003c0 dc 70 d4 3c 5d 0d 94 be 9c a3 33 3d 03 3b c2 bc
       0.025932722 -0.28916445 0.043857202 -0.02370978
0003d0 1f 5d 3a be ec 61 aa bd 0a 36 2e 3d 10 e1 4b be
       -0.18199585 -0.08319458 0.042532004 -0.19910073
0003e0 e6 69 2b 3d 03 0a ec bd 2e c0 a6 bd e7 1e e0 bd
       0.04184904 -0.11525347 -0.08142124 -0.10943394
0003f0 1f 06 2d 3e ec c2 1a be 33 c9 1f bd 03 d2 45 be
       0.16896866 -0.1511342 -0.039010238 -0.19318394

fc3.bias f4 [2]
000000 a1 cf 1e bd 69 fd e1 bd
       -0.03877223 -0.11034662
