agent1_checkpoint_critic.pth (torch_old, 164621 bytes, 5 tensors)

fcs1.weight f4 [200, 52]
00000000: 9b52 d13e 81d3 7c3f c6be ce3d 6b1b 79be
00000010: 3803 1abd 8733 a7be 8fdf cabb 76b7 79be
00000020: d814 013f ed96 8a3f 4010 d8bd 630f 7d3e
00000030: bf36 a3bd f807 fabe 68e9 d4bd 887d 813e
00000040: c4d2 c43e 67bb 9d3f 0b38 b13d 3e32 2f3e
00000050: d7f8 b73d d038 2fbf ad88 9a3d 31af fb3d
00000060: b72b c73e 8f6a 1d3f 22cd 2d3d 6a21 0cbe
00000070: 899d ea3d 07cd d9be c82a 243d 0c0c 3abe
00000080: 8531 c43e 7dcd 3d3f 2c4e f3bd 754e c5bc
00000090: ab39 b0ba 0d4a d2be 4318 05be 43f8 85bd
000000a0: d313 ab3e a855 f73e 8602 143e e47d ccbe
000000b0: 0394 1fbd a092 26bf 7cef 423e 2033 c8be
000000c0: 97b3 92bf 65c9 403f 4f3d 463f 583b d5be
000000d0: ce6d bc3c ee16 5cbd 0cae debc 4e7f 053c
000000e0: cf89 4ebd b06d 593e 200c 2f3d 681f 15bd
000000f0: 709b c5bd 9634 50be 9395 79bd 124e 283d
00000100: aee6 c83d 18c4 4b3e 09d1 323d f714 873d
00000110: d70c 92be b490 8abe 9b09 8f3c a6e6 0fbe
00000120: 2af6 173f e5ca b4bf efbb 1a3d 53c2 0bbe
00000130: 6d2a bc3e 942d 183f c69e 8c3c 6bf8 743e
00000140: 83b4 863d 7780 a23e b617 b63b 31d1 7e3e
00000150: 2147 ab3e 3e7c 053f 01db 3a3d 0802 7b3d
00000160: 3be2 f5bc 2c7d 613e 2357 b83c 8338 9c3d
00000170: b804 303f a2b9 ff3e 5314 05bc 4b52 0e3d
00000180: d0be 2fbf 7796 adbf fe8d 773d b80b cc3c
00000190: fbeb 293e 30fa 1bbf 32a6 d13f a6dc ad3e
000001a0: 0111 0a3d d4e7 17bd 44c9 1b3d ee03 ea3c
000001b0: da9e a9be 767f d83d babb 23bd 604c bfbc
000001c0: effa b13c b0e7 6c3d 00d4 5bbd 2aae 0a3d
000001d0: f658 44bc 38bf a93e 3444 5a3d 5663 7abd
000001e0: 2a85 0c3d c619 573e 7cf4 273c e714 f5bc
000001f0: 7143 573f e4b5 6cbe 9eea de3a a868 223d
00000200: e1e4 9c3c d083 febe 36f4 803b 8281 953c
00000210: 2ebd cd3e cea3 063e 0d30 82bc 20cd d2bc
00000220: 65ce 983e c391 fbbe 9aa0 27bc 4bc6 28bc
00000230: 587f 82bc c6cc be3e 0026 573c 5c51 a8bd
00000240: 5792 193f 9413 eabe a833 89ba 6f50 ab3d
00000250: 6da9 63bf 7632 9abe a126 2d3c a05d a13c
00000260: cf01 bdbd b2cb dfbb e1e4 403f 5c96 9a3e
00000270: 71b1 49be 1bbe ce3e 0802 16bc eb9d 8a3e
00000280: ffa1 213d e4aa 953c a44d b23d eb15 823e
00000290: b6b3 89be 055c 313f 4cd0 bb39 95f3 283f
000002a0: eb0d 37be 063e 19bf a729 65bc 1512 2c3f
000002b0: 81b9 91be 3752 573f 737f bbbc bdee c7be
000002c0: fd95 9ebc 6729 a4bf 7340 9cbb 81f4 d6be
000002d0: 9707 c33d da38 773e 4dec d63c 3219 3cbe
000002e0: 4d15 43bd 9415 d53d 459e 3a3c a86e 34be
000002f0: 9f43 443e 28eb ab3d 6607 aaba 7548 04be
00000300: 8fdd 863d b21d 21bf a073 b0bc 1724 aebd
00000310: 09b8 c33d 48f3 153e d30a 9abd 358a 5bbc
00000320: 57bb b23d 231a 9bbf 5db7 2a3c 37fd 923c
00000330: 59cf 86bd d08a 58be a040 bebe 8f89 c6bd
00000340: 2851 56be d11e 0b3f f022 abba 2c4d 2a3c
00000350: 0cb2 9dbd 76bc d23e cfa2 fabc d6c0 983d
00000360: 2d10 763e bac9 e53e 4c9b 883d 61ae de3b
00000370: 48f2 0b3d 87df ca3e aa04 e93d 5f2e c43c
00000380: 2a1d 183f eb4b 063f c056 ef3c 2dc7 e33c
00000390: 0f24 18be a9e7 f2bf 269b 66bd dc2f 7bbc
000003a0: 2571 d13c d597 683e f080 b0bc f068 69be
000003b0: 4b0b 02b9 a0fb df3e 2d03 aa3b 323a 84be
000003c0: cfd9 d43d d781 7e3e b22f 823d 700e 933d
000003d0: e111 de3c 97b4 e53e 8088 c33d 77c0 d73c
000003e0: c16b d93d 1794 7f3e 866a abbb 8f74 27bd
000003f0: efd4 253e 5793 f5bf 0489 073d 2bec 84bd
0.40883335 0.9876023 0.10094981 -0.24326865 -0.037600726 -0.326565 -0.006191201 -0.24386391
0.5042243 1.0827309 -0.105499744 0.24712901 -0.07969426 -0.48834205 -0.10396081 0.25291085
0.3844205 1.2322816 0.086532675 0.1710901 0.08983009 -0.68446064 0.075456 0.122892745
0.3890054 0.6149072 0.042431958 -0.13684621 0.11455829 -0.42539236 0.040079862 -0.18168658
0.3831903 0.74141675 -0.118801445 -0.024085263 -0.0013444921 -0.4107212 -0.12997536 -0.06541493
0.33413562 0.48307538 0.14454088 -0.39939797 -0.038959514 -0.6506748 0.19036669 -0.39101505
-1.1461056 0.75307304 0.774373 -0.41646838 0.023001578 -0.053732805 -0.027182601 0.008148028
-0.050424393 0.21233249 0.042736173 -0.036406904 -0.09648788 -0.2033256 -0.06093366 0.04109008
0.09809624 0.19899023 0.043656383 0.065957956 -0.2852542 -0.27063525 0.017460635 -0.14052829
0.5935999 -1.4124418 0.037776884 -0.13648348 0.36751118 0.59444547 0.017165553 0.23922889
0.06577399 0.31738636 0.005557026 0.24884488 0.33452705 0.52142704 0.045619015 0.061281234
-0.030015102 0.22020406 0.022502488 0.07627966 0.687572 0.49946314 -0.008122521 0.03474645
-0.6865053 -1.3561543 0.06043815 0.024907932 0.16593926 -0.6092863 1.6378844 0.33957404
0.033707622 -0.037086323 0.03803374 0.028566327 -0.33129007 0.10571186 -0.039973952 -0.023351848
0.0217261 0.057838142 -0.053668976 0.033857502 -0.011984101 0.331537 0.0532877 -0.06112989
0.034306683 0.21005926 0.010251161 -0.029917194 0.8408728 -0.23116261 0.0017007177 0.03965059
0.019152107 -0.4970994 0.003935362 0.01825023 0.40183395 0.13148424 -0.015892053 -0.025732577
0.29844967 -0.49134645 -0.0102311615 -0.010301183 -0.015929863 0.37265605 0.0131316185 -0.08218643
0.5998892 -0.45718062 -0.0010467665 0.08364951 -0.889304 -0.30116624 0.010568292 0.019697964
-0.092288606 -0.0068297023 0.7534924 0.3019284 -0.19696595 0.40379414 -0.009155758 0.27073607
0.039461132 0.018269964 0.08706215 0.25407347 -0.2689492 0.69281036 0.00035822613 0.65996677
-0.17876403 -0.59860265 -0.0139869815 0.6721509 -0.2846184 0.84109825 -0.022887921 -0.3904933
-0.01935863 -1.2825135 -0.004768425 -0.41983417 0.09522932 0.24142781 0.026235724 -0.18368986
-0.047627736 0.10404506 0.011390273 -0.17620337 0.1916642 0.08394462 -0.0012972176 -0.12918265
0.06585228 -0.62935936 -0.02153951 -0.08502977 0.09556586 0.14643586 -0.07521596 -0.01339965
0.087271385 -1.2117351 0.010419694 0.017943008 -0.06582517 -0.21146703 -0.3715868 -0.09694206
-0.20929396 0.543439 -0.0013056677 0.010394376 -0.07699975 0.4115941 -0.030595211 0.074586555
0.24029608 0.44880468 0.066702455 0.00679569 0.034166604 0.39623663 0.11377843 0.023947893
0.594195 0.5245959 0.02921617 0.027804935 -0.14857505 -1.8976947 -0.056300305 -0.015331235
0.025566647 0.2271417 -0.021545857 -0.22793937 -0.00012401973 0.43746662 0.005188367 -0.2582565
0.10393106 0.24854217 0.063567534 0.07180488 0.027108135 0.44864342 0.0954752 0.026336892
0.106162556 0.24958836 -0.0052312044 -0.040882643 0.16194509 -1.918559 0.033089653 -0.06490358

fcs1.bias f4 [200]
00000000: db1e 29bf 0cac 123f 6ad2 3dbf 375d 80be
00000010: 8d85 dbbd fd3a 01be 93f5 f7be 7d63 8a3d
00000020: d6b1 25be a9b0 eabe fa4a 73bf d249 973e
00000030: 3ab4 f6be de10 33be 4535 a8bd 832d 27bf
00000040: 05c7 c3be e87a 63bf 30c6 0fbf 7985 31bd
00000050: 4ea2 afbb 70d8 463c 7f17 84be 4ea1 0abf
00000060: 5c99 ef3c 9f27 8dbe 8a69 893c ca1a 58bf
00000070: b3d3 13bf 6612 6d3e f86b 66be b681 14bf
00000080: 9f64 14bf 7a95 493e 1fb2 0cbf 6245 66bf
00000090: 026d 3bbe 6408 eabe 2db3 51bf b004 0fbf
000000a0: 8f93 313d 2328 323f 2a64 cebe cc57 96bf
000000b0: b968 07be c51e f2be 8e3f 6a3f 266d d0be
000000c0: d15d 67be a046 bcbe bfbe cebe 06b1 1bbe
000000d0: 7fdb 1ebe 2b97 773f 0d6b 9cbe d931 c03c
000000e0: ef64 3cbf 989c edbd a92c dfbe 59b1 93be
000000f0: b310 60be cc6f fd3e b9bb c2bd e971 a8be
00000100: 6311 57be facd d13d ee22 c93b 8462 81be
00000110: 9c32 24bf acfb a3bd 1907 40bf f10e a4be
00000120: a4ed 1bbf c2dc 3cbf 9e82 233d 2a53 f0be
00000130: d88b 3abe 08c3 0bbf 742c 27be 322b 78be
00000140: 014f 56be 6b59 5bbe e7e2 85bf 7d86 abbe
00000150: 7206 2ebe a4b0 5cbe 6ca4 05bf 9ebe e7be
00000160: 4292 95bd 673b 17bd fc5d 65bf 2723 f9be
00000170: 3524 d1be 5172 42bf 3ea1 12be 9507 3bbf
00000180: 064e 01bf b992 23bd b1ad c33d 2d64 37bf
00000190: ac36 19bf eec2 32bf 797d 94be 75a0 0e3e
000001a0: b51f 02bf 7b29 4abe f429 5e3f ee34 3fbd
000001b0: 09c0 c5be 39f7 623d 6f51 34be 3bc2 b7be
000001c0: af01 b2bd 25d3 00bf 40bf 0ebf 8bc4 27bf
000001d0: 2663 19be 80f3 9e3e 60f8 10bb bd88 b8be
000001e0: f976 80be 586a cebe 62ff d7bd d324 d0be
000001f0: 2b2e 45be 9a72 fcbe 8a76 c1be 5536 b3bc
00000200: ace4 2abf 49a4 c73e 1e72 07bf 6748 20be
00000210: e532 383d 2dc3 86be cf67 c3be f43f 293f
00000220: 4c0b d3be 68b1 c23e d6cb 9ebe 57a7 71bc
00000230: 6a37 4ebf 148a 30be cbd3 0a3d c6f9 26be
00000240: a2e1 b6bd 5234 1fbf 3e7b 8fbd 8a06 49bf
00000250: c97e 17bf 1c36 3cbe ea86 ffbe 10d9 a2be
00000260: b786 55bf 8e31 8fbe a2fd dcbc be91 69be
00000270: bf6f 60be 2193 c9be b106 2abf 759a 86bf
00000280: 516f ec3c 8b69 f6be 2e1a 0cbe 2ca9 30be
00000290: e32a 1fbe 6e90 40be 5f40 c9be af03 8d3c
000002a0: abe4 1bbb 0003 82be 699d 15bf 07c6 c73d
000002b0: 5e91 2f3e bd81 b1be d1f0 4c3e 0d02 0abf
000002c0: 421f 24be a499 d83d 33af 74bf 3cb3 4ebe
000002d0: 6c9e bfbe 5cd6 16be ded4 cdbe fd4b 08bf
000002e0: e079 c5be 8acc 80be 962c 0abf 2250 27bf
000002f0: a0d1 b0be fe7e 863d 361b 12bd a1b9 fdbe
00000300: c45b 5ebe 6ffa 2b3d 7cdf 8abe 3790 06bf
00000310: dee4 87bd b4fc 82bd 8fa1 cfbe 236e 4abe
-0.66062707 0.5729377 -0.7414919 -0.25071117 -0.10718832 -0.12620158 -0.48429546 0.06757257
-0.1618112 -0.45837906 -0.9503628 0.29548508 -0.48184377 -0.17486903 -0.08213285 -0.6530382
-0.38237777 -0.88859415 -0.56161785 -0.04334018 -0.0053599244 0.012136564 -0.25799176 -0.5415238
0.029247932 -0.2756929 0.016773958 -0.84415877 -0.577449 0.2315155 -0.22502124 -0.58010423
-0.57966036 0.19685927 -0.5495929 -0.8994962 -0.18303302 -0.45709527 -0.81914026 -0.5586653
0.043353613 0.69592494 -0.40310794 -1.1745543 -0.13223542 -0.472891 0.91503227 -0.40708274
-0.22594382 -0.36772633 -0.40379903 -0.15204248 -0.15513419 0.9671504 -0.30550423 0.02346127
-0.7359151 -0.116021335 -0.4358876 -0.28846243 -0.2188137 0.49499357 -0.095084615 -0.32899407
-0.21002726 0.10244365 0.006138197 -0.25270474 -0.64139724 -0.08006987 -0.7501083 -0.3204265
-0.60909486 -0.7377435 0.039919488 -0.4693845 -0.18217409 -0.5459447 -0.16325551 -0.24235228
-0.20928575 -0.21420829 -1.045987 -0.33501044 -0.16994646 -0.21551758 -0.5220401 -0.45262617
-0.07303287 -0.036921885 -0.89596534 -0.48659632 -0.40847936 -0.75955683 -0.14319322 -0.73058444
-0.5050968 -0.039934848 0.095546134 -0.7163723 -0.5984905 -0.6982869 -0.29001978 0.13928397
-0.5082963 -0.19742386 0.86782765 -0.046681337 -0.38623074 0.05541155 -0.1760919 -0.35890374
-0.08691727 -0.5032218 -0.55760574 -0.65534276 -0.14979228 0.3104515 -0.00221207 -0.36041823
-0.2509077 -0.4031551 -0.10546757 -0.40653095 -0.19255893 -0.49306184 -0.3778575 -0.021876493
-0.66755176 0.38992527 -0.52908504 -0.1565262 0.04497041 -0.26320782 -0.38165137 0.6611321
-0.41219556 0.38025975 -0.3101489 -0.01474937 -0.80553305 -0.17240173 0.033893388 -0.16306219
-0.08929755 -0.6218921 -0.070059285 -0.785256 -0.59177834 -0.18380016 -0.4990762 -0.3180623
-0.83408684 -0.27967495 -0.02697641 -0.22809502 -0.21917628 -0.39370063 -0.6641646 -1.0515887
0.028861674 -0.48127398 -0.13681862 -0.17252034 -0.15543704 -0.18805096 -0.39306924 0.01721367
-0.002378742 -0.25392914 -0.58443314 0.097545676 0.17145297 -0.34669295 0.20013739 -0.5390938
-0.16027549 0.105761796 -0.9557983 -0.2018556 -0.37425554 -0.14730209 -0.40201467 -0.5324095
-0.38569546 -0.2515605 -0.5397428 -0.6535665 -0.3453493 0.065671906 -0.03567048 -0.49555686
-0.21714693 0.04198688 -0.2712363 -0.52563804 -0.0663545 -0.063958555 -0.40552947 -0.19768576

fc2.weight f4 [150, 200]
00000000: 3031 e0bd dcc5 77be 3d2b 803e f34e 29be
00000010: 5c61 9d3c 06e1 f2bd 0894 e3bc a85b cfbd
00000020: b0dc 26be 7329 e93d b5fc 6a3c 9ba3 75bd
00000030: 8a81 283d 230d 14be 5c5a 15be 089e 9fbd
00000040: 0573 18bf df71 6fbe f860 2ebd 4f4d b8bd
00000050: 42f0 38bd 9e9e 85bd 878d 0d3c 08f4 84be
00000060: 4273 29be fe11 573e 8e34 61be ac02 203d
00000070: b9f2 c0be f63a 3fbd 1ff8 fc3c 018d 46bd
00000080: c1b8 59be 4893 10be 5f5a d2be 7c6f 44be
00000090: 26a4 88be 72c5 9abe d50a 93be 4f93 debe
000000a0: c551 78be 6790 0fbe 400d b2bd ff5a 20bf
000000b0: 5a81 22be 28ca 323d ebe2 143e e017 c0bd
000000c0: 5e81 8bbe 5212 0bbe da07 a6bd e504 59bd
000000d0: abea cfbd 44e7 a53d d639 bebe 3734 efbd
000000e0: 7ae5 5abd 6875 ae3d 29d0 073d 0873 79be
000000f0: ec0c b7be a10b 23bd 4648 ccbe 9d72 88be
00000100: ea45 34be 070a 89be 46a7 edbc 9665 05be
00000110: 9e5d b7be 7652 b2bd fe5c 903c 4212 0ebf
00000120: 2499 7cbe bf98 0b3e 7a46 c8bd 086b 99be
00000130: 7403 4ebd f4be 11bd 7dbd 4339 c3cc 613e
00000140: ec97 95be f879 53bc c856 f2be 7ee0 bfbd
00000150: f0c5 4ebc a5bc 883d 617d 493e 9d65 66bd
00000160: 8e77 92be 6329 09be a28a 86bd 336b 2dbe
00000170: 2d39 debd 036e cabc dd3b 8dbe 53df 51be
00000180: 1ce7 d3bd 1502 e7bd 4b28 c5bc 6506 32bd
00000190: 31f7 9fbb ee46 09bd acc2 9abd efbb e8bd
000001a0: 7b78 f03c 2b35 86bd 5cf6 37bd 1130 91bd
000001b0: b5a1 943d ccc0 4abe 0dda 64be 25d8 34be
000001c0: 9d9d 27be 1c1a 8ebe 1d6a 9bbd 235b b9bd
000001d0: 53ac 5c3c 70db 8abc 222b cc3b 56df 84be
000001e0: 32b5 053e 211a a7be 365b b8bd d12f efbd
000001f0: 7cc0 6bbd 4814 65bc 8f21 7bbe f6d0 c0be
00000200: f076 fbbe 10f0 16be 49e8 0bbd b20c 29be
00000210: b278 72be cc8c 8a3c 45d6 63be d16c 7ebe
00000220: 73c2 17bb 14ce 50be 040e 76be 1159 2cbe
00000230: 9717 d4bd 5174 32be 1eef c43d d3cc a4be
00000240: ffe5 cfbe 5048 9ebe ed99 87be c84e adbd
00000250: 1c40 4cbd 0b6a 34be eef8 8a3d dcc8 05bf
00000260: abbd 8abe da43 2a3d 0df6 1a3e f67a 9ebd
00000270: c4f4 f6bd c85e 40be f1e9 2cbd 3d95 093e
00000280: 11a8 f13d bb20 7dbe 9103 0e3b 29da efbd
00000290: 6d11 cd3b 8852 8bbe 4144 8cbd 5752 84bd
000002a0: 17fa 0ebe 5982 dcbd 6462 8e3d 03c7 8dbd
000002b0: 78b6 f9bd b5a0 b9bd f8e3 02bf 50e2 44be
000002c0: bc93 53be 5153 99bd 9708 9dbd c91b ed3c
000002d0: 32dc d6bd 0218 8abd 4ae0 89be 1a19 823d
000002e0: ce9c a7be 5b4c 89be be03 b8bd 6514 4ebe
000002f0: 70b5 1fbe df72 fbbd 8a63 fb3d 3ecf f0bc
00000300: 5dcd c6be 950f 35be d1fe 88be e4bc bdbe
00000310: 1d7d 343d 2dc3 7b3d ae1d 283d b955 18bf
00000320: f045 e8bd 277e 07bf dc42 fcbe a593 5ebe
00000330: 829d c6bc e2da d4bd 5c69 e9be 88e6 abbe
00000340: 784f cabe a6bc ecbd c0a6 ba3d 5544 413c
00000350: d588 84be c1da 6fbe 3078 7fbe b2be 44be
00000360: e4cc acbe d95e 9ebe fa2a a4bc 8275 0cbc
00000370: 5610 b7bd 7b8d 053d a413 63be a148 4cbe
00000380: f2d6 cfbd 6031 45bd 1b17 b5be b321 1fbd
00000390: 07f2 e5be ffee 6dbe b029 1b3d 56a2 10be
000003a0: e5e2 c83b bd9f ab3d 827e 81be abd0 5ebd
000003b0: ebc0 7ebe abfd aebe 4862 00bd 7ad9 3cbe
000003c0: dd5d f2be f3c5 ccbd 71c1 2d3e 48c5 27bf
000003d0: a230 39be cec0 f1be f3cb 59bd dc0c 883e
000003e0: c8af 35be c9d2 afbe 261e 05be 3add dbbe
000003f0: cb87 89be 3962 6bbe 36fe f03d 37b2 d43c
-0.10946882 -0.24196571 0.25032988 -0.16534023 0.019211464 -0.11859326 -0.027780548 -0.10124904
-0.16295123 0.11384859 0.014342477 -0.05997048 0.041139163 -0.14458136 -0.1458525 -0.07793814
-0.59550506 -0.23383282 -0.042572945 -0.089991204 -0.045151003 -0.065243945 0.0086397 -0.2596743
-0.16547874 0.21002957 -0.21992704 0.039065048 -0.37685183 -0.04668709 0.030880032 -0.048474316
-0.21261884 -0.14118683 -0.41084573 -0.19183153 -0.26687735 -0.30228764 -0.28719202 -0.43471763
-0.24249943 -0.14019929 -0.086939335 -0.6263885 -0.15869656 0.043649822 0.14539687 -0.09379554
-0.27247137 -0.13581207 -0.08106966 -0.052983183 -0.10152181 0.08100751 -0.371535 -0.11679881
-0.053441502 0.08518487 0.0331575 -0.24360287 -0.35752046 -0.039806012 -0.3989889 -0.26649943
-0.17604795 -0.26765463 -0.029010426 -0.13027033 -0.35813612 -0.087071344 0.017622467 -0.5549661
-0.24667794 0.13632487 -0.09779067 -0.2996447 -0.050296262 -0.035582498 0.00018667239 0.22050767
-0.2921747 -0.012907498 -0.47331834 -0.0936899 -0.012620434 0.06676606 0.19676735 -0.05624925
-0.28606838 -0.13394694 -0.06569411 -0.16935425 -0.10850749 -0.02471066 -0.27584735 -0.20495348
-0.10346815 -0.11279694 -0.024067065 -0.04346313 -0.0048817624 -0.03351491 -0.07556662 -0.113639705
0.029354325 -0.0655311 -0.04491268 -0.07089246 0.07257406 -0.19800109 -0.22348805 -0.17660578
-0.16368718 -0.27754295 -0.07588599 -0.09050586 0.01346882 -0.01695034 0.006230728 -0.25951642
0.13057402 -0.32637122 -0.09001772 -0.11679042 -0.057556614 -0.013981886 -0.2452452 -0.37659425
-0.4911418 -0.14740014 -0.03415707 -0.16508749 -0.23678854 0.01691284 -0.22249706 -0.24846198
-0.0023156672 -0.20391113 -0.24028784 -0.16830851 -0.10356062 -0.17427184 0.096159205 -0.32187518
-0.4060516 -0.30914545 -0.26484624 -0.08462292 -0.049865827 -0.17618577 0.06785761 -0.5225961
-0.2709783 0.041568615 0.15132923 -0.07738297 -0.12058404 -0.18786156 -0.04221529 0.13435836
0.11799634 -0.24719517 0.0021669606 -0.117115326 0.006258181 -0.27211404 -0.06848956 -0.064610176
-0.13962589 -0.10767049 0.0695236 -0.06922724 -0.12193006 -0.090638556 -0.511291 -0.19226956
-0.20661825 -0.074865945 -0.07667654 0.028943913 -0.10491218 -0.067428604 -0.2692893 0.06352444
-0.3273682 -0.26816067 -0.08985089 -0.20124967 -0.15596557 -0.12277769 0.12274845 -0.029395696
-0.38828555 -0.17681725 -0.2675691 -0.37058175 0.04406463 0.06146543 0.04104393 -0.595058
-0.113414645 -0.5292687 -0.4926976 -0.2173601 -0.024245027 -0.10393311 -0.45588195 -0.3357432
-0.39513755 -0.11559419 0.09113836 0.011796077 -0.25885645 -0.23423292 -0.24948192 -0.1921337
-0.3375007 -0.30931738 -0.020040024 -0.008572938 -0.08938663 0.03260563 -0.22175461 -0.1994958
-0.101484194 -0.04814279 -0.3536919 -0.038850497 -0.44911215 -0.23235701 0.037881553 -0.14124426
0.0061305636 0.08380077 -0.2529183 -0.05439822 -0.2487828 -0.34177908 -0.03134373 -0.18442336
-0.47337237 -0.09998693 0.16968323 -0.655354 -0.18084958 -0.4721741 -0.053173017 0.2657231
-0.17742836 -0.34340504 -0.12999782 -0.4294222 -0.26861414 -0.22986688 0.11767237 0.025963886

fc2.bias f4 [150]
00000000: c297 cebe 0215 d1be 689e 90be d80e a2be
00000010: ad81 a4bf b503 0abe b5b2 c7be 1cf9 76be
00000020: 286e 05be 5cc4 a3bd 8021 f9bd e224 2ebe
00000030: 3536 91be 7f77 f23d 5509 72be b0a2 eebd
00000040: 4fb8 5abe 6055 a5be fe9b 2bbe 5301 64bf
00000050: d458 9c3e fe1d e5bd b983 6cbe 15ec 04bf
00000060: 328c 0bbf 5f4c 72be f009 963d 071b 5fbe
00000070: a990 753e b92e a3be 6928 1fbe 3b81 773e
00000080: 3252 263e 9d64 10be aa63 90be 3877 c8be
00000090: 9866 f7be 94ff 88be 0a65 a8be b269 02be
000000a0: cc99 0f3f 43dd afbe 35d1 bd3e f152 28be
000000b0: a80e 83be 5ca5 06be 6a8d 3abe efab 22be
000000c0: 34c6 4cbf 53f9 15be 86f6 c8be 523c 153e
000000d0: 27ba bc3d 7c2e 19be 6285 3abe a3e9 4cbe
000000e0: bb9f d8bd 5b81 7dbe 4067 0b3e 021b f4bd
000000f0: 948c 0fbf 3e91 3abe 905a 6c3f cfe2 00be
00000100: fb5f bebd a58a d73e f432 dbbd 346a 04be
00000110: 7691 803f ad04 243e 78d3 f6be 1bf4 2e3f
00000120: 06da 183e 7cb8 81bd c153 68be 29c1 a3bd
00000130: 49ad c8be 2b12 60be c1b8 173b c930 2abe
00000140: 1ed0 31bd 8954 31be b0c0 acbf fa68 ec3e
00000150: b290 f8be b412 1abe 9444 72ba 1c86 53bd
00000160: c0e8 df3e 92ef 01bf ceaa 1cbe 4929 0fbe
00000170: 700b 8fbd 951c 89be 2db1 4fbd a144 87bf
00000180: ae64 3d3f 4e74 2abe 6cfb a43d c859 3fbe
00000190: abae 403d 5ea4 973d c9f6 babe d59d 2bbe
000001a0: e39a 5c3d 8b38 123f 8a55 693e 63cb 84bd
000001b0: 5c2e 13bf 18b2 703e 73d2 de3c 3ffc 99be
000001c0: e550 10be 71fa 3abe 2158 25be aa70 aa3d
000001d0: f7d5 0abe ac1d 02be b973 d5bd 7ee5 5ebe
000001e0: de93 07be 0e96 0fbe 7694 c63d d384 303e
000001f0: f838 81be 3a61 ad3d f784 943c 09bf 363f
00000200: aa78 17bf 10cb 063e 3855 dabe 843f 3f3e
00000210: 82aa 5b3e 1218 c2bd f473 1fbe 36a1 1bbe
00000220: c206 723d cf98 22be e4ea 65bd 56b8 0b3f
00000230: e776 8cbc 25b7 88bd 5867 bdbd 7ce9 e2bd
00000240: 29a4 9dbe 9d5d 7abe 7be7 8cbd 68f1 88bd
00000250: 8b7e 34be dbb2 a3be
-0.40350157 -0.4083634 -0.28245854 -0.3165195 -1.2852074 -0.13477977 -0.3900353 -0.24118465
-0.13030303 -0.07996437 -0.12164593 -0.17006257 -0.2836167 0.11839198 -0.23636372 -0.11652124
-0.2135937 -0.32291698 -0.16758725 -0.8906452 0.3053652 -0.11187361 -0.23097123 -0.5192273
-0.54510796 -0.23661946 0.07326114 -0.21787654 0.23980965 -0.31871584 -0.15542759 0.24170391
0.16242293 -0.14100881 -0.28201038 -0.39153457 -0.4832046 -0.2675749 -0.32889587 -0.12735632
0.5609405 -0.34348497 0.37073675 -0.1643789 -0.2559712 -0.13149017 -0.18218008 -0.158859
-0.79989934 -0.14645891 -0.39250582 0.14573792 0.09215193 -0.14959139 -0.18214944 -0.20011
-0.10577341 -0.24756376 0.13613605 -0.11919214 -0.5607388 -0.18219468 0.9232569 -0.1258652
-0.092956506 0.42097965 -0.10703078 -0.12931138 1.0044391 0.16017409 -0.48208213 0.68341225
0.1492692 -0.06334016 -0.226882 -0.07995827 -0.39194706 -0.2188193 0.0023150893 -0.16620173
-0.043411367 -0.17317404 -1.3496304 0.4617384 -0.48547894 -0.15046197 -0.00092417863 -0.05164157
0.43732262 -0.5075618 -0.15299532 -0.13980593 -0.069846034 -0.2677962 -0.050706077 -1.0567819
0.7398175 -0.16645929 0.080557674 -0.18686593 0.047041576 0.074043974 -0.36516407 -0.16759427
0.05385865 0.5711753 0.22786537 -0.064841054 -0.57492614 0.23505437 0.02719996 -0.3007526
-0.14093359 -0.18259598 -0.161469 0.0832227 -0.13558184 -0.12706631 -0.10422463 -0.21767232
-0.1324 -0.14022085 0.096962854 0.17238168 -0.25238776 0.0846581 0.018129809 0.71385247
-0.59168494 0.131634 -0.42643142 0.18676573 0.21451762 -0.09477247 -0.15571576 -0.15198216
0.059088476 -0.15878604 -0.056132212 0.5457815 -0.01714654 -0.06675557 -0.09248227 -0.1107969
-0.30789307 -0.24449773 -0.06880089 -0.066866696 -0.17626397 -0.31972393

fc3.weight f4 [1, 150]
00000000: 7a09 1dbb 1a92 023c ab62 8dbc b9f9 75bd
00000010: 2261 7abc 599c 41bc 02a8 c33b 244b 05bb
00000020: b721 eebb 1742 81bc 7ec7 253c 02b2 7d3c
00000030: e914 8f3c 46c2 393b 63fe bf3c 99a4 9a3d
00000040: bc8b 893c 5249 6d3c f37f 923c 44ce 6abc
00000050: d2dc 8dbc 4311 4f3c e416 43bc 7e2e c1bb
00000060: 18a4 83bc d211 153d 58ec 54bc a106 8e3c
00000070: 2e5d 3bbd ee85 88bc 9aeb afbb f9c0 bc3b
00000080: 07b4 003d 6ae1 d1bc 3206 32bb d831 c2bc
00000090: 43d5 49bc 1102 85bc 4711 dbbc aca2 52bc
000000a0: 1564 07bd e63f 5b3b 343a dabc 7909 993c
000000b0: acd0 8dbc 0937 c63b 1b05 3f3b 1cee 0dbc
000000c0: 7353 a3bc d0d0 3a3c 6415 03bc 7ff9 9fbc
000000d0: 4cf7 273c 539e 4c3c de3b 933c 2e99 35bc
000000e0: 961f f3bb fe84 bfbc 3271 b9bb adcb 913c
000000f0: 3853 07bc 860d 4b3c 3b09 48bc 37c2 21bc
00000100: 9217 85bb 0d8d 0b3c 4621 013c d8b5 703b
00000110: de7b 313c 560a 9dbc 6a26 81bc 2ec7 c33b
00000120: 51e3 6abc 4a84 30bd 22a4 71bc 92d0 a5bc
00000130: 02db 4b3d 9c88 d0bb bd5e c63c dff8 053c
00000140: 41f9 ccbc ff63 473c 4419 1fbc 7289 803c
00000150: e004 86bc b9b4 37bc 6ad3 173c f820 25bc
00000160: adb3 0b3d 015d a4bc 8c2d b53a dccd 083d
00000170: 6fbe 7d3c 75e3 95bc e7d5 1a3c a35a 08bc
00000180: a6c8 81bc f900 69bb 6c34 90bc 18a7 2a3c
00000190: b009 38bd 1b0b 9a39 b826 a63c 4563 80bc
000001a0: 2290 d93b 11a7 13bc c353 393c 9eae 86bb
000001b0: f095 aabc 0c43 853c a537 ccbc e59a a6bc
000001c0: 6119 b0bc 7296 4ebc 7e1e 3b3d 270c d93b
000001d0: b27f ae3c 7f99 9e3c e594 093c b43d be3c
000001e0: c51a 24bc cb9a d73b 550b 333c faa3 6bbc
000001f0: d468 1abd 261c 953c 822c f3bb 66a6 f03b
00000200: e5c8 7dbc bb90 ec3d 8b7f d33a 1100 4c3c
00000210: 1637 6dbc 7c3a 1ebc 60a3 253d 7be1 7cbc
00000220: eff9 153c 625b 0bbc 81e1 283c 47a1 44bc
00000230: 08a1 913c a142 e3bc 36b6 6e3c b242 b73b
00000240: c960 263c c6ae b2bc dc2e aabc 05fc 8ebc
00000250: e3a7 263c 0d94 0cbd
-0.0023961947 0.007969404 -0.017258963 -0.060052607 -0.015281947 -0.011817061 0.005970956 -0.0020338977
-0.0072672027 -0.015778584 0.010118363 0.015484335 0.017466025 0.0028344556 0.02343673 0.07550926
0.016790263 0.014482813 0.017883277 -0.014331404 -0.01731721 0.012638393 -0.011907313 -0.005895435
-0.016069457 0.036393948 -0.012995802 0.017337145 -0.04574316 -0.016665425 -0.005368662 0.005760309
0.031421687 -0.025620181 -0.0027164337 -0.023705408 -0.012318912 -0.016236337 -0.026741637 -0.012856167
-0.03305443 0.0033454834 -0.026639082 0.018681275 -0.017311417 0.006049041 0.002914733 -0.008662727
-0.019937253 0.011402324 -0.008000705 -0.019528149 0.010251831 0.012488919 0.017972883 -0.011083884
-0.007419537 -0.023378845 -0.005659246 0.017797315 -0.008259587 0.012393361 -0.012209232 -0.009872965
-0.0040616477 0.008517516 0.007881468 0.003672948 0.010832755 -0.019169968 -0.015765388 0.005974672
-0.014336423 -0.04309491 -0.014748605 -0.020241056 0.04976941 -0.0063639414 0.024215097 0.008177011
-0.025021197 0.012169837 -0.009710614 0.015690539 -0.016359746 -0.011212521 0.009266714 -0.010078661
0.0341069 -0.020063879 0.0013822778 0.033399448 0.015487297 -0.018296937 0.009450412 -0.008322391
-0.015842747 -0.0035553558 -0.017603122 0.010415815 -0.044931114 0.00029381443 0.020282134 -0.015672335
0.0066394964 -0.009012 0.011311474 -0.0041101715 -0.020823449 0.016267322 -0.024928877 -0.020337531
-0.021496477 -0.012609111 0.045683376 0.006623763 0.021301124 0.019360302 0.008397316 0.023222782
-0.010016148 0.006579732 0.010927995 -0.014382357 -0.03769763 0.018201899 -0.007421077 0.007344055
-0.0154897915 0.11551043 0.0016136033 0.012451188 -0.014478466 -0.009657498 0.04043901 -0.015434618
0.009153827 -0.008505674 0.010307671 -0.012001342 0.017776981 -0.027741732 0.01456981 0.0055926675
0.010154911 -0.021811854 -0.020774297 -0.017454157 0.010171863 -0.03432088
