agent2_checkpoint_critic.pth (torch_old, 164621 bytes, 5 tensors)

fcs1.weight f4 [200, 52]
00000000: a3fc 8e3c d212 78bd 3f9a 163d f3ad c03e
00000010: 734a 1a3d 751c b6be af1e 90bd ed5f c03e
00000020: 9144 0f3e e8a9 fc3c 5818 2b3c 0999 aabd
00000030: 717d 7bbd ca76 0cbf 564f 443c cac1 9ebd
00000040: e840 103e 87d1 143e 0af8 d0bd 17d5 9bbb
00000050: 5497 553e 3a46 0cbf 42a7 e7bd dbea 58bd
00000060: caa7 60bd 8b2a e73e 426d b1bc 99c8 d2be
00000070: 37ee 203d 6bb5 e8be 3cb1 c4bc ddbd e9be
00000080: 56ac 823d a0df 8f3e 8fda 94bd 9d32 04be
00000090: 99e2 a0bc ea2f f1be b4bc abbd fd84 2ebe
000000a0: 4e23 2c3b 0391 fd3d 9839 8bbc 0eed debe
000000b0: d87f 21be ed9f 03bf f42a ec3c 62a2 dabe
000000c0: 6fd0 c6bf 630a 0fbf 1bef de3f fb79 2a3f
000000d0: 313e 70bd ca4d b4bd fd4b 97bd 4e9b 373e
000000e0: bbbe 3f3e ea0e b83e 4cab 81bb 97fb 093e
000000f0: b3b7 adbd 98be 4e3c 68c6 113c ee1e 1c3d
00000100: f6ae 1c3e c4af 3fbe be6b e83d 90fd 803d
00000110: e9b4 17bd db97 363d 1133 67bd a619 d23d
00000120: 4972 8f3d 08c3 43bf 1ffc 13bd b662 da3d
00000130: 7916 2b3e ddea 543f 097c 863b fcfe 0f3e
00000140: 2b07 30be bed8 ed3e 07e5 f5bb 60d7 193e
00000150: c373 eb3e 5faa 6f3f 1042 8b3d 90bc 5ebe
00000160: 95f0 adbd 98f6 29be 9ed4 373d cc60 4fbe
00000170: 6954 223f 54ee 893f 0986 00be 77dd 293e
00000180: 32dc 26be 1a5a 35bf 2946 69bd 4fca 1f3e
00000190: 44c7 d2bf 5726 843f 18db 92be 1e90 af3e
000001a0: 6704 8fbc 4267 e33d 25f4 133d c2f2 393d
000001b0: 8aed 093e bf43 e93e 0d91 2bbd 4ea4 d5bb
000001c0: 53d1 073d b797 b13e b376 9bbd 9fe1 e73d
000001d0: bd01 083e d981 d73e bd56 fe3c 6f65 953c
000001e0: 9eb0 b9bd 5133 813e 02d2 37bc 0f31 8bbd
000001f0: 6c26 083f 2554 96bf 94f4 a1bc 1817 d23a
00000200: 9fb1 7e3e 5da0 2d3f 0e4c 5abc 8e95 923c
00000210: b361 83bd db75 f63e a6c9 07bd 72b9 d5bc
00000220: ec4e 073f 60c8 403f 25f7 cd3b 7b0b 243d
00000230: 6f97 24be 4b8f ec3e 56e1 f23c 1e65 02bd
00000240: 5e9d 353f 37c6 533f bbb9 773c 8b0c cc3d
00000250: 7e8c 14bf e549 9fbf 6a03 db3c 1027 123d
00000260: 2d16 513e 71c1 84bd ce02 db3f 60f9 043e
00000270: 9304 6ebe b56f 063e 13fe 44ba 41ab eabc
00000280: 8f3a 84be ccca 49bf 6584 c33d da96 39bd
00000290: 65cc 54be dd48 b33e 5ee9 0b3d d510 873e
000002a0: a8a8 f23c 9b3e 6ebf 404f a23c b34d 8d3e
000002b0: ed1a 363e 0a06 d53e 02f6 f63c 4305 d13e
000002c0: ebb5 b73e 2e20 1dbf a0b2 453d 9bff c13e
000002d0: 9c9c bbbd 3711 4e3f de55 0a3d ba48 93be
000002e0: fd0b 803e b0d5 33bf a10e 9b3c 7373 8fbe
000002f0: 34fa 27bc 8a1c 433f f2c7 2c3d 0d0e 57bd
00000300: 10f4 11be 551e 76bf 02bd b33c c7d0 08bc
00000310: d805 5a3d ffec 853f 79be c3bd d7cf 0e3f
00000320: 95f0 94be 7801 0bbf bae5 22bc fad5 163f
00000330: a7e6 53bf e3f7 b83e d3ca 553f 17ae 283f
00000340: 9b3f 553d db80 093f c08c 043d af93 33be
00000350: 0645 2f3d fce6 77bf c54a 493b a7b2 e3bd
00000360: 2f28 343e f44b e93e 4c3f aabb 3d37 72be
00000370: fa85 42be 8093 e1bf 798d 2b3d f1a6 60be
00000380: 3d00 b23e 6c50 a53e 2e0b 233e 1050 6dbe
00000390: 02cc b5be 5d55 00bf fff2 963d 0fbe 8cbe
000003a0: 4b3b ef3c 8929 4e3f d0f7 22bd 9c7f 203e
000003b0: 1196 f5bd 6847 71bf 51de 55bc 9474 013e
000003c0: fac2 593e 8252 433f 9296 a43d fd95 4a3d
000003d0: 95a2 803e 20de dabf 96ef e53d 6fcc 823b
000003e0: b59c 543e 961a 1f3f 8148 abbd a31d 793e
000003f0: 64a4 bc3e a9ac 05bf 909b 39bd 5984 603e
0.017454451 -0.060564823 0.036768194 0.37632713 0.037668657 -0.35568586 -0.070371024 0.37573186
0.13991 0.030842736 0.010442816 -0.083299704 -0.061398927 -0.5486876 0.011981806 -0.07751806
0.1408726 0.14533053 -0.1020356 -0.004755627 0.20858508 -0.5479466 -0.11311199 -0.05295835
-0.054847516 0.45149645 -0.021658543 -0.4116867 0.03928968 -0.4545091 -0.024010293 -0.45652667
0.06380527 0.281003 -0.07268249 -0.12909932 -0.0196393 -0.47106868 -0.08385602 -0.17042919
0.002626616 0.123811744 -0.016995236 -0.43540233 -0.15771425 -0.514159 0.028829075 -0.42702013
-1.5532359 -0.55875224 1.7416719 0.6659238 -0.05865306 -0.088038996 -0.073875405 0.17930338
0.18725102 0.3594888 -0.0039571878 0.1347488 -0.084823035 0.012618683 0.008897401 0.038115434
0.15301117 -0.18719393 0.11348675 0.06298363 -0.037037764 0.044578414 -0.056445185 0.10258798
0.0700422 -0.7646947 -0.036129113 0.10663359 0.16707791 0.8317087 0.0041041416 0.14062113
-0.17190234 0.46454424 -0.007504109 0.15023565 0.45986757 0.9361934 0.0679971 -0.21751618
-0.08493153 -0.16597974 0.044880502 -0.20251769 0.6341005 1.0775857 -0.1255113 0.16588388
-0.16294935 -0.7084061 -0.056951676 0.15604518 -1.6467061 1.03242 -0.2868278 0.3428964
-0.017458154 0.11103679 0.036121506 0.045397528 0.1346952 0.455595 -0.041886378 -0.006519831
0.03315861 0.34686062 -0.075909995 0.11322331 0.13281913 0.42091253 0.03104722 0.018236844
-0.0906689 0.25234464 -0.011219503 -0.067964666 0.5318363 -1.1744429 -0.019769944 0.0016028611
0.24872445 0.6782282 -0.013323797 0.017893579 -0.06415119 0.48136792 -0.03315129 -0.026089404
0.528548 0.7530575 0.0062855654 0.04005001 -0.16073392 0.46203074 0.029648464 -0.031834714
0.7094325 0.82724327 0.015119965 0.0996333 -0.58026874 -1.2444426 0.026735026 0.035681784
0.20418616 -0.064822085 1.7110231 0.12985754 -0.23243932 0.1312855 -0.00075146666 -0.028646113
-0.25825927 -0.7882507 0.09546737 -0.04530988 -0.20781095 0.35016528 0.034158103 0.2638003
0.029621437 -0.9306428 0.01981318 0.27598342 0.17783709 0.4160617 0.030146603 0.40824327
0.3588098 -0.6137723 0.048266053 0.37890324 -0.0916073 0.8049502 0.033773296 -0.28766423
0.25009146 -0.70247936 0.018927874 -0.28017768 -0.010252524 0.7621542 0.04218287 -0.052503634
-0.14253259 -0.96140033 0.021940712 -0.008350558 0.05322823 1.046295 -0.09557814 0.5578589
-0.290898 -0.54299116 -0.009942466 0.5892025 -0.8277382 0.36126623 0.8351261 0.6589064
0.052062612 0.5371224 0.032360792 -0.17536806 0.042790435 -0.9683683 0.0030714732 -0.111180596
0.17593454 0.4556576 -0.005195534 -0.23653884 -0.1899642 -1.7623138 0.041882966 -0.21938683
0.34765807 0.3228792 0.15922233 -0.23175073 -0.35507208 -0.50130254 0.073705666 -0.27488753
0.029203078 0.8053213 -0.039787114 0.15673679 -0.119915135 -0.9424958 -0.013053493 0.12642127
0.21265784 0.7629777 0.080365315 0.049459446 0.2512404 -1.7099037 0.11227338 0.0039916555
0.20762904 0.6214994 -0.083634384 0.24327712 0.3684417 -0.52216583 -0.04531437 0.21925487

fcs1.bias f4 [200]
00000000: e008 14bf 33dd 303e cd41 3abe 3140 c2be
00000010: 6e26 e7bd e5ae 56bf 928d 18bf 3af6 ecbe
00000020: d60b b0be 8bd9 11bf 63e3 68bf 6591 4abe
00000030: 18ce be3c 5a5c 55bf 951a 88bc ad41 bbbe
00000040: 64c0 8abf 3687 4fbe 5849 66be 4e3e edbe
00000050: 2b57 12bf d858 1abf 3839 19bf 7f79 173f
00000060: a7b3 4b3d 529a 20bf 810d 93be eab9 cdbe
00000070: 6e3b edbd f8e2 233e c173 043e 70e4 20bf
00000080: a37c 54bf d9bb 493e 86ae 67bf 9f97 38bf
00000090: d109 77be 2a8c 3bbf 6093 15bf 352e b5be
000000a0: 3066 10be 8723 03be 4872 debe 333d f0bc
000000b0: 5b5b 02bf e459 fbbe d9f2 e1be 198d dabe
000000c0: 68eb bebe 0504 23bf bfa2 453d 018d 993c
000000d0: 303c b63d 32d5 673d 2642 1e3d 6916 6fbf
000000e0: 21a8 a6be c8fb 0bbf c013 eabe 7e29 ccbe
000000f0: e36d 9ebe 74fc fabc 9671 95be f8ba f3bd
00000100: a85d 9d3e f559 8cbf d672 bdbe 2499 37be
00000110: c851 063e ced9 36bf f15b a2be 9065 963c
00000120: 8d82 c0be efd0 133e 44d5 553e 4983 4bbd
00000130: 7743 eabe 5322 f5be a810 b8be 6b68 98be
00000140: 40e2 52bc 2460 ddba 8b18 c5bc de0b d7be
00000150: 0a43 2abf eae5 b93e cd38 adbe 98d6 37bf
00000160: e985 4cbe f355 edbe 6009 01be 8f2f 0bbe
00000170: f807 b1be 2dd1 123f 1cd7 d2bd a17e f3be
00000180: 9501 1dbf 0f6c 9cbe 8436 c0bd 99e6 e9bd
00000190: 3043 e6bf 0d5c c9be 02aa 7cbe f72f a1bd
000001a0: a8a7 26bf b07d 38bf 1aa2 68be 43c2 06bf
000001b0: 5f37 45bf 2b9d 94bd bcef 0ebf 56db fe3d
000001c0: 1eac 293e ad49 e6be ca7e 353d 63ec d8be
000001d0: 2179 eabd 2348 5ebf 656f bb3d 5456 e4be
000001e0: b998 1fbf 0e6c 9abf c378 10be c9fe c2bd
000001f0: 6ed0 14bf 30e1 28bf b6dd febe 8094 ddbd
00000200: 88bd 18bf d988 c13d 23d0 abbe ecce f6be
00000210: 6a52 e73d 22d7 81be 10bd 40bf 9aa9 663f
00000220: d8d0 f4bd e63d 0a3f 11ea edbe 58f8 00be
00000230: 98ed 71be 400a 123d 21b0 d9be 1496 acbe
00000240: 05dc 80bf e319 b0be 9d99 51be a413 b3be
00000250: bf01 53bc ba01 b2be f68b b3be 1292 da3e
00000260: 0e65 29bf 54a1 15bf e52e 833e f64d 58bf
00000270: 9df1 9f3e d53c b6be 8ac3 37bf 1e65 e2be
00000280: a474 6d3f f3f3 ecbe f29f 5fbe 7a9e 7fbe
00000290: d25e 063f fed1 d9be bd36 a2bf 7993 1cbf
000002a0: 0ce4 e6be 3bea 003d 3267 82be fd43 b53d
000002b0: 270e 193f aebc 24bc 2e48 713f e6f7 f8be
000002c0: 4069 66be ce52 9fbe 85a5 92be a31e dfbd
000002d0: 3a7b 10be a88e fcbe 5b54 c1be d895 15bf
000002e0: 5c93 b7be a121 e3bd 896e 9ebe 4d9a 00be
000002f0: 4367 e6be 5649 5abf 822b 7cbf 975d d0be
00000300: 8ca4 4ebf 199c 81be 3cc9 c9be ce73 3e3c
00000310: 200f 30bf a0c3 14bf ed2a 7a3e 20ee e5bd
-0.5782604 0.17271881 -0.18189164 -0.379396 -0.11286627 -0.8386062 -0.5959102 -0.46281606
-0.3438403 -0.5697257 -0.90971965 -0.19782026 0.023291633 -0.8334404 -0.016614238 -0.36573544
-1.0839963 -0.20266423 -0.22488916 -0.46336597 -0.5716426 -0.60291815 -0.59852934 0.59169763
0.049731877 -0.62735474 -0.2872124 -0.40180904 -0.11583601 0.1600455 0.12934782 -0.6284857
-0.8300268 0.19700564 -0.90500677 -0.72106355 -0.24124838 -0.7326075 -0.58428 -0.35386816
-0.14101481 -0.12806521 -0.43446565 -0.029326057 -0.5092065 -0.4909202 -0.4413059 -0.42685774
-0.37288976 -0.6367801 0.04825091 0.018743994 0.088981986 0.056599803 0.038637303 -0.9339357
-0.32550147 -0.5468106 -0.45718193 -0.39875406 -0.30943212 -0.030637957 -0.29188222 -0.11900896
0.30735517 -1.0964953 -0.37001675 -0.17929512 0.13117135 -0.71426094 -0.3171077 0.018358976
-0.37599602 0.1443517 0.20882136 -0.04968575 -0.45754597 -0.4787775 -0.35950208 -0.29767165
-0.012871325 -0.0016889614 -0.024059555 -0.4200124 -0.66508543 0.36308223 -0.33832398 -0.7181182
-0.19972958 -0.46354637 -0.12601233 -0.13592361 -0.34576392 0.57350427 -0.10294935 -0.47557548
-0.6133054 -0.30551192 -0.09385398 -0.11420936 -1.7989254 -0.39328042 -0.24674228 -0.07870477
-0.65099573 -0.72066784 -0.22718087 -0.5264017 -0.77037615 -0.0725654 -0.55834556 0.12444179
0.16569564 -0.44978085 0.04431037 -0.4236785 -0.11448885 -0.8682882 0.09152106 -0.44597113
-0.6234241 -1.2064226 -0.14108567 -0.09521253 -0.5813054 -0.6596861 -0.49778527 -0.1081934
-0.596642 0.0944993 -0.33557233 -0.48204744 0.11295016 -0.25359446 -0.75288486 0.9010254
-0.11953896 0.540007 -0.4646764 -0.12594736 -0.23625791 0.035654306 -0.42517188 -0.3370825
-1.0067145 -0.3439475 -0.20468755 -0.34975922 -0.012878834 -0.34766942 -0.3506772 0.42689568
-0.6616982 -0.5844929 0.25621715 -0.8449396 0.31239024 -0.35593286 -0.71782744 -0.4421777
0.92756104 -0.46279868 -0.21838358 -0.24962798 0.52488434 -0.42543024 -1.2672955 -0.61162525
-0.4509586 0.03147338 -0.25469357 0.08850858 0.5978722 -0.01005475 0.9425076 -0.48626631
-0.22501087 -0.31117862 -0.28641906 -0.10894515 -0.14109507 -0.49327588 -0.3775967 -0.5843177
-0.35854614 -0.110903986 -0.30943707 -0.12558861 -0.45000657 -0.8526815 -0.9850389 -0.40696403
-0.8071983 -0.25314406 -0.39411342 0.01162429 -0.6877308 -0.58111 0.24430437 -0.11227059

fc2.weight f4 [150, 200]
00000000: 578f 8e3d d97e 97be 881f fc3c 72c7 8ebe
00000010: 894d 0cbf c21e c9bd 4728 85bd 0090 b5bd
00000020: 8d44 0bbe e971 c2be 9b40 a6bb 1373 e6bd
00000030: 81dd 523c 9810 a0bc 9f0e a0bd 486e ffbc
00000040: 89c6 babe 46ba 163e 47a6 d1bd f149 903d
00000050: 9d87 35bd 6a3a 33be 10d2 1bbe b11f b9bd
00000060: cfaf 3bbe 6f20 06be 4c84 b63d e39d bebe
00000070: 9e0d 10bd afaa 183c 0754 07be b8e9 78be
00000080: 4b3d babe 3863 18be 8302 ae3d 6ebe 44be
00000090: 5641 d2be ae1c 383e b164 03bc fad0 d2bd
000000a0: 426a d83d 6961 8ebe a47b 93be 1089 043d
000000b0: 9271 713e deff f3be 064c 3dbe a5a2 5e3d
000000c0: a640 01be 4cf1 58be 244a 233e 5173 8bbd
000000d0: ecbc b13d cb31 62be a4d2 a4be 3602 373e
000000e0: 201e 473c df5e 6abe 64c3 b8bd a97f b2be
000000f0: 85e1 29be 27bc 473a 1186 5fbd 384b fabc
00000100: 5a45 d0bc e705 d73c 3106 a43d a4b1 74be
00000110: f7ea 9fbd 0f60 ebbe 0b21 2bbf 8f9a 0fbe
00000120: f525 33be c79f 30be 07d2 75be 9468 75be
00000130: aa58 96be 7343 23be 0042 11be 6983 c73d
00000140: cccd 313e 2320 dc3b c0e3 d9be 2434 8bbe
00000150: fdb2 a3be 5e97 64be 8a07 833d 7a6e 6a3d
00000160: 48c0 a1be c526 dbbe b82f 0dbc 5ca8 f6bc
00000170: 4055 f63c fbd2 43bd 0850 bfbe 17fd 273c
00000180: 1cfa 22bf f4a1 0bbd 90d7 b9be efde 0f3e
00000190: 5da6 a3be 01e2 20be 2361 45be 3bea cebe
000001a0: 4744 d4be c259 75bd ae86 c53c 5c4e 86be
000001b0: 67ab babc 11b3 ed3d d185 88be 2bce 3b3e
000001c0: ed0e c8be 2672 e23d a941 c7bd 0b49 58bd
000001d0: 7059 8ebe 907b 0e3e 91cf ddbe 30f4 03bf
000001e0: ed0b 97be 39f0 95be 083f 4dbe d2f1 583d
000001f0: ef2a 24bd aae1 d1be 64a7 9b3d 00c6 85be
00000200: f3cc b0be 92e3 9cbe ac2f 0fbe beac 39bd
00000210: c562 ccbe 103e 2f3e 4b3b 0fbe 992b 803d
00000220: 4709 3c3e 581d 443d 5b22 f23c dc83 a6bd
00000230: 804e b53d 40c3 9e3d e9ff 663d 3827 17bf
00000240: 3e52 e7be 8cdf 56be 3bb6 c6be 881e b43b
00000250: 82a4 ddbd 0fde d2bd ee98 273e 4ebd acbe
00000260: c240 3b3c 3e7f 9bbd f7a6 543c d9d7 8dbe
00000270: 7a5f 06bf 4616 013d 3af7 04bd 3e99 53be
00000280: a776 06be 5c8a d0bd 449d 1f3e 013a f6be
00000290: ca28 1cbd a1bd 453e 4e5c 19bf 604f 9cbe
000002a0: b041 9dbe 19bb a7be b186 9cbd b597 10bd
000002b0: 5a65 11bf d222 fbbc 4cfb b73c 2456 043c
000002c0: fcc8 fe3d 8886 dcbd 004d 2abe 7d32 33be
000002d0: b20b a7be 37b6 0dbe b1bb adbe d7e0 36be
000002e0: e440 50be e3fd c83d a3a9 ca3d c32f 1fbe
000002f0: f912 46be 09aa 04bf f713 fcbe f03e eabe
00000300: d6e1 4e3e 3997 293e 25f0 103d 4268 143d
00000310: 41d3 b33d 60c6 e0bc 6dc5 3f3d 5ebf d7be
00000320: e5e6 c93e c2a6 e33c e453 2b3e a080 bcbd
00000330: 6358 cbbd 57cf 003e 2000 f2bd b823 613c
00000340: b4d1 ec3d 8130 9e3d 3806 06bd 8275 9dbe
00000350: f9ca f3bd 052b 29be b026 92bb 77aa a3be
00000360: 1124 603d de2d c5bc b89a 8cbe fa15 aa3b
00000370: 3325 bdbc 6fd0 94be 7625 76bf eed6 17be
00000380: 8a25 18bf 5be1 e4be b442 7a3d 8c1c 073e
00000390: d04a a13c 26dc 6bbe 5bf0 bdbe ed62 053e
000003a0: c202 ea3c 2aaa 0e3e b1a1 99be 7a50 43be
000003b0: 654a 6f3c 53d9 b4be 5c1a 87bd 5ff0 9abe
000003c0: fdca 503d 6c27 67be 2c58 0dbe fd4b 1a3d
000003d0: e6dc 36be 2c91 c33d ba5a b5be 4d37 2cbd
000003e0: bfc9 04be 7285 333d a36c 00bf 5656 08bf
000003f0: c716 debe d30c f3bd c763 a3bd 1b83 bdbd
0.06960934 -0.29588965 0.030776754 -0.2788654 -0.5480581 -0.0982032 -0.06501823 -0.088653564
-0.13600369 -0.37977532 -0.0050736195 -0.112524174 0.012870193 -0.019539163 -0.07815289 -0.031180516
-0.36479595 0.14719495 -0.10236793 0.07045353 -0.044318784 -0.17502752 -0.15216851 -0.09039248
-0.18328784 -0.1309831 0.089119524 -0.37229833 -0.035169236 0.009318038 -0.13215648 -0.24307907
-0.36374888 -0.14881599 0.08496573 -0.19213268 -0.41065472 0.1797969 -0.008019612 -0.10293765
0.10567142 -0.27808693 -0.28805268 0.032357275 0.2357848 -0.4765615 -0.18486032 0.05435433
-0.12622318 -0.21185797 0.15946251 -0.06809104 0.08678612 -0.22089307 -0.32191956 0.17871937
0.012153178 -0.22887753 -0.09021643 -0.34863022 -0.16589935 0.00076192844 -0.054571215 -0.030553445
-0.025423694 0.026247932 0.080089934 -0.2389589 -0.07808488 -0.45971724 -0.66847295 -0.14023803
-0.17494948 -0.1724845 -0.240059 -0.23965675 -0.2936452 -0.15943699 -0.14185333 0.097418614
0.17363662 0.006717698 -0.42556572 -0.27188218 -0.31972495 -0.22323367 0.06397922 0.057234265
-0.3159201 -0.42803016 -0.008617334 -0.030109577 0.030069947 -0.04780863 -0.37365746 0.010253212
-0.63662887 -0.034089997 -0.36297274 0.14049886 -0.31962863 -0.15711214 -0.19275336 -0.4041308
-0.4145834 -0.059900053 0.024112072 -0.26231658 -0.02278681 0.1160642 -0.26664594 0.18340366
-0.39073887 0.11056928 -0.097293206 -0.052804034 -0.2780261 0.13914323 -0.43322423 -0.51544476
-0.29501286 -0.29284838 -0.20043576 0.052964993 -0.040080007 -0.4099248 0.076002866 -0.26127625
-0.34531364 -0.30642372 -0.13983029 -0.045330755 -0.39919105 0.17113519 -0.13987462 0.062583156
0.18362914 0.047879547 0.029557398 -0.08130619 0.08852863 0.07752085 0.0563964 -0.5904422
-0.45179933 -0.20983714 -0.38810906 0.0054968037 -0.10822393 -0.102962606 0.16366932 -0.33738178
0.011429014 -0.07592629 0.012979261 -0.2770374 -0.52489436 0.031515382 -0.032462336 -0.20663926
-0.131312 -0.1018264 0.15587336 -0.48091128 -0.038124837 0.19310619 -0.5990647 -0.30529308
-0.30714178 -0.32759932 -0.07642878 -0.03530093 -0.56795275 -0.030656252 0.022458695 0.008077178
0.124406785 -0.10767847 -0.16630936 -0.17499729 -0.3262611 -0.1383904 -0.3393226 -0.17859207
-0.20337254 0.0981405 0.09895637 -0.15545563 -0.19343175 -0.51821953 -0.49233982 -0.45751143
0.20203337 0.16561593 0.03538527 0.03623224 0.08780528 -0.027438343 0.04681914 -0.4213819
0.3943397 0.027789477 0.1673122 -0.09204221 -0.09928968 0.12579094 -0.1181643 0.013741426
0.11563435 0.07724095 -0.032720774 -0.30753714 -0.11903948 -0.16520317 -0.0044601783 -0.31965992
0.054721896 -0.024069723 -0.2746179 0.005190608 -0.023089027 -0.29065272 -0.9615091 -0.14828083
-0.5943228 -0.44703183 0.06109877 0.13194484 0.019688994 -0.23033199 -0.3709744 0.13026018
0.028565768 0.139321 -0.30006173 -0.19073668 0.014605139 -0.35322055 -0.065968245 -0.30261514
0.050974835 -0.22573632 -0.13803166 0.037670124 -0.17857704 0.09549174 -0.3542078 -0.042044926
-0.12967585 0.043828435 -0.50165766 -0.5325674 -0.43376753 -0.118676804 -0.079780154 -0.09253522

fc2.bias f4 [150]
00000000: cd9d 19be 121b 64be c339 95be ebd4 c5bd
00000010: 3528 2f3e 746a 6c3e 6e5c 44be 3c64 b0be
00000020: 1856 34be bdb4 9b3e ae11 d3be 64db 53be
00000030: 21c9 103d 04ef 10bd fd1c 8b3d 3912 74bc
00000040: 273e bebe e8af 4d3d 900c 003d 0689 9ebe
00000050: 313c 90be 46e9 dfbd 82a8 dfbe 9a80 84be
00000060: e8d6 4fbe 0d35 72be e74f a5bd e47e 64be
00000070: ecc2 45bd f2b6 f53d 0beb b8bd 1146 2fbe
00000080: 6c92 c33e 4b09 29be 2d17 89be 019b ad3e
00000090: 0661 1fbf 555b 8dbe 4bda 5bbe c80e f23e
000000a0: a84c 2cbf 5743 15be 6510 d7bd 471f c83e
000000b0: d1a9 87be b0ac f6bd e9df 34be 2c90 09be
000000c0: 9c56 03bf 2d01 b7be 4cf8 a0be 1d87 bbbe
000000d0: 4db4 ec3e 69a4 24be 1dcc c6bc 9201 0fbe
000000e0: ce92 f03c 4fb4 83be f1a0 03be 758e 8c3d
000000f0: 706f 663f 68a8 0fbf 5964 5dbe 9c1a f2bd
00000100: 7bd1 843b b336 1bbe 53b8 e33d 005a 4abc
00000110: b708 0d3f 47dc adbd 22ea 45be 942b 3d3f
00000120: d210 cbbd 0c4e 48be 0e8a 2bbe 679f b0be
00000130: 4193 edbe 2915 17be 3221 18be bf08 8a3e
00000140: 90cc c0bd 06cc d9be dd53 6bbe a898 bebd
00000150: 51db 193e b6c8 ecbe 9351 393f 9d1b 0dbe
00000160: c774 8ebe 96b7 12be ab1b 6ebe 7c72 343d
00000170: a612 e53e db89 56be 3176 6dbe c274 30bf
00000180: e97f 0d3f 8265 22be 314a 96be 487b 3ebe
00000190: d8a5 95be 62fc 00c0 507e f2be 74b2 4c3d
000001a0: db05 29bf f79c 313e c44c 8cbe a2e9 b33d
000001b0: a6f7 f9be 45d2 e9bd d2f6 5dbd a46b a5be
000001c0: e4fa 193f e728 f83e 4095 fcbd 6bfa 0fbe
000001d0: 781d 9dbe 06df 60bd 582b 84be 42f2 85bd
000001e0: 512f 39be 6ed6 9f3d 6b69 9c3d b704 45be
000001f0: 0a6b 633e 2b21 26be 3d87 a23e a1a3 52be
00000200: 8b79 1bbe 4f70 2d3d 63bd d63c 91a3 40be
00000210: e542 01be 052b 2b3d 8ea1 b1bd 8d5d 06be
00000220: 2272 30be 2183 d3be a10c 273f 41b2 5cbf
00000230: 389f c3bd 21ff 493e 0d5a 2bbe 9aff fabd
00000240: bffc 96be 4c3e 85bd eff1 62be 4239 65be
00000250: d298 b63b 6f5b 8dbe
-0.15001602 -0.22275952 -0.2914563 -0.096597515 0.17105182 0.23087484 -0.19175884 -0.34451473
-0.17610967 0.3041133 -0.41224426 -0.2068916 0.03534806 -0.035384193 0.067926385 -0.014896923
-0.37156793 0.050216585 0.03126198 -0.30963916 -0.28170922 -0.10933165 -0.4368325 -0.25879365
-0.20296824 -0.2365305 -0.08071881 -0.2231403 -0.048281595 0.11997785 -0.09029206 -0.17116572
0.3819765 -0.16507451 -0.26775494 0.3390732 -0.6225742 -0.27608743 -0.21469991 0.47276902
-0.6730447 -0.1457647 -0.10501174 0.39086363 -0.26496747 -0.12044656 -0.1766354 -0.13433903
-0.5130403 -0.35743085 -0.31439435 -0.3662652 0.4623131 -0.16078342 -0.02426725 -0.13965443
0.029366877 -0.25723502 -0.12854363 0.06863109 0.9001379 -0.5611634 -0.21620311 -0.118214816
0.0040532923 -0.15157585 0.111191414 -0.012350559 0.5509142 -0.0848928 -0.19327596 0.7389462
-0.099153176 -0.19561023 -0.16751882 -0.34496614 -0.46401408 -0.14754166 -0.14856413 0.26959798
-0.09414017 -0.4253847 -0.2298121 -0.093064606 0.15025069 -0.4624688 0.723901 -0.13780065
-0.2782347 -0.14327845 -0.23252742 0.044054493 0.4474079 -0.20951025 -0.23189618 -0.6892816
0.552733 -0.15859035 -0.2935348 -0.18601716 -0.2922809 -2.0154042 -0.47361994 0.049974874
-0.6602456 0.17345034 -0.27402318 0.08784796 -0.48821753 -0.11417059 -0.054190464 -0.32308686
0.60148454 0.48468706 -0.12333155 -0.1406037 -0.30686545 -0.05490019 -0.2581432 -0.06540348
-0.18084456 0.07804571 0.076372944 -0.1924008 0.22208801 -0.1622359 0.31743804 -0.20570232
-0.15183084 0.042343434 0.026213353 -0.18812396 -0.12623174 0.041789073 -0.08673392 -0.13121624
-0.17231038 -0.4131098 0.65253645 -0.86209494 -0.09551853 0.1972623 -0.1673357 -0.122557834
-0.29489705 -0.06506023 -0.22162603 -0.22385123 0.005572417 -0.2760882

fc3.weight f4 [1, 150]
00000000: 92e2 ff3d cf7a 36bc a48a c63b 152e 6bbc
00000010: 698c 21bc 6e0b 06bc feb1 193c 4dcc 32bd
00000020: 6f08 db3a 3424 143c 3271 9abb 0883 e83c
00000030: 5e44 593c d70e f4bb a04c b4bc 3576 173c
00000040: e7eb e53c d3df 5b3c e857 f33c d410 e33c
00000050: ecc1 d23b 0f69 333c b679 73bc 934d 8bbc
00000060: d5c9 89bc 8718 9db9 38ae 8bbc 00bd 83ba
00000070: 829b 61bc ecec edbb cb0e d43c a1ff a3bb
00000080: 9a14 2e3d e892 d7bc 289a b4ba a9e7 4e3c
00000090: 45fe 11bc 2709 2cbc 9675 383c 2855 eebc
000000a0: 98b4 aabb a7f3 28bc b189 bbbc 8c76 573c
000000b0: cdb5 753c 4655 083b 559b bebc e49e 563c
000000c0: caad 31bc bbb3 97bc 0ab3 1c3c 712b 01bd
000000d0: b636 493c 1290 ca3c 204b 533c 70ab 353c
000000e0: 5c6d e93c 4dc4 953b 1c61 40bc 6d5f 3c3c
000000f0: 7bce 5cbc f1a6 193b eba4 bfbc a04f 9b3b
00000100: d036 5cbc 709d 023c b474 8bbc 2070 a83c
00000110: 9302 233c 603d 3cbc 095f ed3c c4b9 df3b
00000120: 40b9 45bc e3ea debc d157 d4bc 6bed c83b
00000130: d015 94bc 30bc 333c 2e54 51bc aa3d 153c
00000140: 105f 77bc c906 9c3c 5226 8ebc b191 d43c
00000150: 65df 71bc 1903 afbb b701 273c ad07 7d3c
00000160: 8876 893c f769 95bc 1186 e63b a9f0 bb3c
00000170: 5573 003c fb6f 54bd 7d92 9d3c b133 9f3b
00000180: 23c7 f0bc d98e acbc 3d88 2ebc d27e c0bc
00000190: d6ba 12bc 1b9b 16bc 36de 92bc a06c c7bc
000001a0: 9c21 ec3b 8776 18bc 7ef5 b3bb e489 453d
000001b0: 7065 45bc 0816 15bd 4df6 c6bc 2a70 13bc
000001c0: ab2b 353c 6792 1fbc 4284 62ba 7b2d 3ebc
000001d0: ecc3 d8bc 56ae 953b 31dd 0ebd 4c7a 74bc
000001e0: 8be2 06ba 223c 6c3c 7f20 103c 6013 9b3c
000001f0: 0ebb 16bd b7e8 e9b9 db9f 47bc 28eb 1bbc
00000200: 2293 8cbc b96a 003d 6da0 1cbc 1219 003c
00000210: 210f c13c 5543 0cbc 85af 4e3a c484 2e3c
00000220: b856 873c 4702 c1bc 46f9 193c ee04 5abc
00000230: 8c97 f03c 3cdf f23b 112c fbbc b23a 80bc
00000240: ab0a 6cbc ce7d 293c 2088 3dbc 9e52 07bc
00000250: 5b7c 02bc 9a89 0e3d
0.12494387 -0.011137678 0.0060590077 -0.0143542485 -0.009860137 -0.008181436 0.009380816 -0.043651868
0.0016710887 0.009041835 -0.004713201 0.028382793 0.013260929 -0.007448058 -0.022009194 0.009244491
0.028066589 0.013420063 0.029705003 0.027717985 0.0064318087 0.010950341 -0.014860561 -0.017004764
-0.016819874 -0.00029963648 -0.017050847 -0.0010050833 -0.013769986 -0.0072609093 0.02588596 -0.0050048386
0.042500116 -0.026315168 -0.0013778852 0.012628474 -0.00891072 -0.010500229 0.011258503 -0.02909334
-0.0052095167 -0.0103119975 -0.022892805 0.013150822 0.014996958 0.002080278 -0.023267427 0.013099406
-0.010844657 -0.01851832 0.009564171 -0.03153557 0.0122811105 0.024726901 0.012896329 0.011088237
0.02849453 0.00457052 -0.011741903 0.011497361 -0.013476963 0.0023445452 -0.023394069 0.0047397166
-0.013440803 0.007972106 -0.017023422 0.020561278 0.009949344 -0.011489242 0.02897598 0.006827565
-0.012068093 -0.027211612 -0.02592078 0.006131818 -0.018076807 0.01097016 -0.012776418 0.00910894
-0.015098348 0.019046204 -0.017352257 0.025948377 -0.014762734 -0.0053409454 0.01019328 0.015443725
0.016780153 -0.018239005 0.007035025 0.022941904 0.007839997 -0.051864605 0.01923489 0.004858457
-0.02939183 -0.021064209 -0.010652599 -0.023497973 -0.008955678 -0.009192253 -0.017928224 -0.024343789
0.007206155 -0.009305603 -0.0054919114 0.048227206 -0.01204811 -0.036397964 -0.024287367 -0.00899891
0.011057775 -0.009739495 -0.0008640924 -0.011607523 -0.02646061 0.0045679016 -0.034878913 -0.014921736
-0.0005145452 0.014418634 0.00879681 0.018930137 -0.036799483 -0.0004461461 -0.012184109 -0.009516515
-0.017160002 0.03135178 -0.009559733 0.007818477 0.023566784 -0.008560975 0.0007884431 0.010651771
0.016520843 -0.023560656 0.00939781 -0.013306839 0.029369138 0.0074118655 -0.030660661 -0.015652988
-0.01440684 0.010344936 -0.011568099 -0.008259444 -0.007964219 0.034799196
