agent1_checkpoint_actor.pth (torch_old, 142823 bytes, 6 tensors)

fc1.weight f4 [200, 24]
000000 f9 73 f4 3b d2 8c 65 bd ae eb 94 bd 66 89 88 bc
       0.007460114 -0.0560425 -0.07271515 -0.01666708
000010 56 09 f4 3c 9f 80 ec b8 0e 1d 62 bc 39 85 e1 bd
       0.029789608 -0.000112773145 -0.0138008725 -0.11011738
000020 1c 3b 2b ba a0 e3 e1 bd d7 a1 a8 bd ce 09 00 bd
       -0.00065319403 -0.11029744 -0.082339935 -0.03125935
000030 e2 d0 07 3d 2f 0c b7 3d b3 47 8b bd 0d 0b d9 bb
       0.03315819 0.08937871 -0.06800785 -0.006623632
000040 24 6e 38 bd 60 85 8a bd bd e1 f4 bc 50 2f 06 3e
       -0.045026913 -0.067637205 -0.029892797 0.13103986
000050 99 e2 e7 bc dd d6 5e 3d d8 8d 7a 3d 58 97 5e 3d
       -0.028306292 0.05440413 0.06117043 0.05434355
000060 d0 ec 2e bc fa 71 f9 3d 87 e9 97 bd 05 fb 10 3e
       -0.010676578 0.121799424 -0.07417589 0.14158256
000070 a4 d9 c4 bd 19 65 76 bd 17 e7 32 bc fd ee f7 3d
       -0.09611824 -0.060155008 -0.010919354 0.1210613
000080 3d fa e6 3a c7 fb 8f 3d 09 91 40 3d bb 60 66 3d
       0.0017622184 0.070304446 0.047013316 0.056244593
000090 e6 24 ce ba 23 09 fc 3c 9d e2 2a 3d 99 00 4b 3b
       -0.0015727549 0.030766075 0.04172002 0.0030975698
0000a0 53 b9 3c bd 00 3a 47 3d c8 e5 99 bc b7 55 90 3d
       -0.046075176 0.048639297 -0.018786326 0.07047599
0000b0 1c 9a ed 3b 55 6f e9 3d c1 f9 47 bd 4e 11 4d 3d
       0.0072510373 0.11398188 -0.04882217 0.05006533
0000c0 4a 22 a0 3d be d4 e8 bd fc ad 6f bc 10 bd d9 3c
       0.0781904 -0.11368702 -0.014628883 0.02657941
0000d0 68 0e 70 be f8 48 14 3e 0d 4b 09 bb 82 42 f6 3c
       -0.23442996 0.1448096 -0.0020949275 0.03006101
0000e0 35 83 68 bc 05 a1 1f 3b e4 87 ba bd 44 b6 76 3d
       -0.014191438 0.002435745 -0.0910795 0.060232416
0000f0 de a7 2c bd 95 df d2 3d 7e 45 d7 bd ac 83 f1 bc
       -0.042152278 0.10296551 -0.105113015 -0.029481731
000100 68 d5 18 3d 03 52 66 bd ff bf c8 bd 89 7e a4 3d
       0.037312895 -0.056230556 -0.09802245 0.08031947
000110 f5 a8 2f 3d 50 01 b5 bd 29 b7 82 3c 13 d9 eb 3d
       0.04288574 -0.08838141 0.015956478 0.11516013
000120 2e ab 05 bd cd 2b 9a 3c 00 11 9f 3c e6 f4 07 be
       -0.032633953 0.018819714 0.019417286 -0.13277015
000130 11 e9 59 bd 37 1d 35 be f2 30 56 3c 81 80 e5 bb
       -0.053200785 -0.17686926 0.013073193 -0.0070038442
000140 1a 6a 5a bd 87 8f 96 3d 19 64 1c bd cb 01 cd bd
       -0.053323843 0.073515944 -0.038181398 -0.100101076
000150 be ec cb bd 77 bc 28 be 33 99 7f bd 08 c8 1a be
       -0.09957264 -0.16478144 -0.06240196 -0.15115368
000160 53 39 5d 3c 70 42 c6 bc 19 cd 9a ba fc 89 12 be
       0.013502437 -0.024201602 -0.0011810391 -0.1431045
000170 51 1d 2f be ba bf 45 bd 5c 09 91 bd 0c 88 5a be
       -0.17101027 -0.048278548 -0.07081863 -0.2134096
000180 59 05 c9 3d df 32 52 be c5 cc 6f bd cc 2d 9f bd
       0.09815473 -0.20527218 -0.058544893 -0.07772407
000190 83 12 94 bb 22 85 52 bc 42 c2 b8 3c 15 57 92 3c
       -0.0045188083 -0.012849124 0.022553567 0.01786379
0001a0 53 02 4a 3e 77 96 c1 bd 0e 93 8f 3d f9 3a a6 3d
       0.19727449 -0.09452527 0.0701047 0.08116717
0001b0 64 ff c8 3d fe 7b d0 bd dc 18 64 3b c1 b2 5a 3d
       0.09814337 -0.101799 0.0034804856 0.05339313
0001c0 af bc b8 3d 18 b4 53 bd 95 71 bb 3c 6b 8d fd bd
       0.090203635 -0.051685423 0.022881309 -0.12380489
0001d0 b6 14 23 3e 6f 25 89 3d 55 a1 99 3d 07 f4 e1 bc
       0.1592587 0.06696593 0.07501475 -0.027582182
0001e0 e5 34 22 3d ab 43 77 3e ff da 45 3c b8 43 f9 3d
       0.039601225 0.24146907 0.0120761385 0.121711195
0001f0 d7 f9 3d 3e ef e3 b0 bc c2 b0 7e bc 2d 23 f8 3c
       0.18552338 -0.021593062 -0.015545072 0.03029021
000200 14 27 49 3d 48 ba 9d 3e 37 5b 85 bc b7 a1 42 3d
       0.049109533 0.30806184 -0.016278846 0.047517505
000210 03 23 46 bc 38 56 fa 3d ff e6 fd bc 25 3f 28 3e
       -0.012093308 0.12223476 -0.030993937 0.16430338
000220 1d 79 cf 3c 81 65 65 3e 40 a1 8c 3c 6e 8e 22 3d
       0.025326306 0.22402002 0.017166734 0.039686613
000230 10 5a 79 be 1d 8e 9f 3d 0a b7 aa bd 0c 00 02 3d
       -0.24350762 0.07790778 -0.08335693 0.031738326
000240 87 09 15 3d 63 c0 31 3e 81 49 02 3e dd be 1c 3d
       0.03638604 0.17358546 0.12723352 0.03826796
000250 79 fa d3 3c 30 d9 10 3c 8c fa 6a 3c 7c 66 80 3d
       0.02587627 0.008840844 0.014341962 0.06269547
000260 5b 1e 11 3d 91 ea 2d 3e 9c e4 1f 3d c0 0c c6 bd
       0.03542934 0.16984011 0.03903638 -0.096704006
000270 bd 08 c6 3d 40 90 b6 3d 6e f5 1e bd c6 7f 7d bd
       0.096696354 0.08914232 -0.03880828 -0.061889432
000280 5a bf c1 bd c2 8f 92 3d e0 15 ff bc c4 d0 20 be
       -0.094603255 0.07156326 -0.03113836 -0.15704638
000290 97 99 09 3e 52 1e 32 3e 0b f6 f0 3c 9e 03 65 be
       0.13437496 0.17394379 0.029414197 -0.22364661
0002a0 2d 78 af 3d 72 b6 01 be e4 10 27 bc 9d 57 f4 bc
       0.085678436 -0.12667254 -0.010196898 -0.029826934
0002b0 bd d9 b2 3c d9 e3 04 3d 0b f2 f0 bd 3f 82 a0 3c
       0.021832341 0.032443855 -0.11764916 0.019593356
0002c0 57 db b3 bc 52 e2 00 be fc 5d 90 3d f0 64 e5 bd
       -0.021955175 -0.12586334 0.07049176 -0.11200893
0002d0 5b 05 f1 3d cf e1 96 3d 42 b5 d8 3d da 2f 6e bc
       0.117685996 0.07367288 0.10581447 -0.014537776
0002e0 3a 38 15 3c 85 5e 16 be b3 34 5d 3d c6 cc 9b 3d
       0.009107644 -0.14684494 0.054005336 0.07607417
0002f0 2b b8 9c 3d d3 d6 a9 3d 24 d5 91 bd ab b9 ef bc
       0.07652315 0.082929276 -0.071207315 -0.029263338
000300 81 b0 88 bc 15 76 60 bd 66 90 d3 bc de 42 fd 3d
       -0.016685726 -0.05480011 -0.02582569 0.123662695
000310 79 91 93 3d 94 2b 2b 3e 9a 4e 8c bc 25 e8 e6 3c
       0.07205481 0.16715842 -0.017127324 0.028186867
000320 34 cb a6 bd d6 06 98 3c c9 b6 07 3d 2c 42 05 3d
       -0.08144227 0.018557947 0.033133302 0.03253381
000330 3f 86 88 bc 4f a2 40 bd 73 be aa 3d 13 fc b0 3d
       -0.016665576 -0.04702979 0.083371066 0.08641829
000340 8a 1e 4e bd 24 8e 67 3d 26 1d cc bd c4 09 f4 3c
       -0.050322093 0.05653204 -0.09966497 0.029789813
000350 07 9a 04 bd 7f fd 41 be ce d7 28 bd 48 0f 3d bd
       -0.032373454 -0.18944357 -0.041221432 -0.04615715
000360 00 dc 04 3d 4d 15 5a 3d 23 7f 93 bd 1c f7 8a bd
       0.03243637 0.05324297 -0.07201984 -0.067854136
000370 a0 15 46 3d 5c a2 cc bd cc 14 f9 bc e4 fc b3 bd
       0.048360467 -0.09991905 -0.030405425 -0.087884694
000380 b7 9b f6 3d c7 9e fc 3d 35 8a 05 3d 1f be 1c bd
       0.12041419 0.12334972 0.032602508 -0.03826725
000390 64 c1 b2 3d 37 f5 9e bd 5c 24 aa bd fb 69 17 bd
       0.087282926 -0.07761615 -0.08307716 -0.036966305
0003a0 8d 16 a5 3d 1d 79 a3 3d fc b0 71 bd bb 36 38 bd
       0.08060942 0.07982085 -0.059006676 -0.04497407
0003b0 eb 47 b1 3d 37 a6 e4 bc 43 c8 fc bd 62 24 cf bd
       0.086562954 -0.027911289 -0.123428844 -0.10114361
0003c0 08 84 33 bd 01 91 f6 bd af 08 ac bd 25 f7 1b 3d
       -0.043827087 -0.12039376 -0.08400094 0.038077492
0003d0 40 65 66 3d 4d b1 a5 bd 63 fb a2 bd f5 e7 89 3d
       0.056248903 -0.08090458 -0.079581045 0.067336954
0003e0 58 d7 7b bd 80 8c 07 be 6f ca a0 3d c6 f2 02 3e
       -0.061484665 -0.1323719 0.07851111 0.12787923
0003f0 ef 34 0b 3d 38 57 49 bb fa 58 2b bd 8b ae 0c 3d
       0.03398603 -0.0030722152 -0.0418329 0.034346145

fc1.bias f4 [200]
000000 ea 85 40 3e e1 2b 30 3d c1 b3 1c 3e 57 3b ec bc
       0.18801084 0.043010596 0.15302946 -0.02883689
000010 b7 de 23 be 01 b4 30 be 3e 17 62 bd fc fc 59 be
       -0.16002928 -0.17256166 -0.055197947 -0.21287912
000020 6b ff 22 3e 16 eb 77 be 6b 05 e1 bd 2a b4 c2 3d
       0.15917747 -0.24210772 -0.109873615 0.0950702
000030 0d c3 6a 3e 8d f5 56 be b2 4d a7 3e 0f 47 c6 3c
       0.22925968 -0.20992108 0.32676464 0.024203805
000040 73 0b 46 be c5 10 ed 3d a8 d9 a6 3d 29 c0 18 bd
       -0.19340305 0.11575464 0.081469834 -0.037292633
000050 5d 5a 3f 3d e1 89 33 3e 9a 1e 4e 3e 6f b8 12 be
       0.046717037 0.17533065 0.20128861 -0.14328168
000060 81 3f 36 be fe db 47 3d 83 98 0c 3e 8f e5 fc 3b
       -0.17797662 0.048793785 0.13730054 0.007717795
000070 ef ed c4 bd 1d da d0 bc 29 bb e7 bd 89 5c 03 3e
       -0.09615695 -0.02549463 -0.11314995 0.12828268
000080 89 5d f5 3d 0d 93 29 be 55 14 80 bc 69 94 45 3e
       0.11980731 -0.16560002 -0.015634695 0.19294895
000090 28 1e bb bd d2 da 56 be ee 2a 40 3e a2 d6 ad 3d
       -0.09136611 -0.20981911 0.18766376 0.084882036
0000a0 9d 94 23 be 1c 17 88 be 59 dd 34 bd b7 ef 82 3e
       -0.1597466 -0.2658013 -0.044156406 0.25573513
0000b0 f9 87 06 be 93 9a 48 3e 06 7e 59 3e bb bc c1 bd
       -0.13137807 0.19590215 0.2123948 -0.094598256
0000c0 16 19 06 bd c8 59 e8 bc bd 14 a4 bd 26 eb 7f 3e
       -0.032738768 -0.028363124 -0.08011768 0.24992046
0000d0 43 eb 02 3c 08 2e 5d 3e 5b 3d 94 bd 8f d1 19 bc
       0.007990661 0.21599591 -0.07238265 -0.009388342
0000e0 54 e6 cc 3c 2a ce 50 3b 41 c2 39 be 5a 60 28 bd
       0.025012173 0.0031861165 -0.18140508 -0.041107513
0000f0 cd 10 38 bd a3 8e ef 3d 0d ce 61 3e 21 5c 86 bd
       -0.044937897 0.11697128 0.22051258 -0.06560541
000100 78 c2 42 be 45 b1 25 be 1c 30 6f be 11 25 e9 3c
       -0.19019496 -0.16180904 -0.23358196 0.028460057
000110 e6 2d 8f 3d e6 ba 88 3d da d4 fd 3d d9 2c 77 3e
       0.06991176 0.06676273 0.12394114 0.24138202
000120 79 dc 32 3e bb 78 13 3e 3a ed 9c 3d 1e d7 95 3d
       0.17466916 0.14401524 0.07662435 0.07316421
000130 be b5 a4 bd 6e b2 5b bd 55 48 1d be 56 14 3a 3e
       -0.08042477 -0.05363696 -0.15359624 0.1817182
000140 08 75 ef 3c 43 e3 e0 bd 66 35 21 be 57 9c 05 be
       0.02923061 -0.10980847 -0.15743026 -0.1304792
000150 4c bc c6 3c 57 bd 0d 3e 05 66 1f be 22 52 5c 3d
       0.024259709 0.13841759 -0.15566261 0.053789265
000160 db d3 02 be e4 bf ff 3d 42 63 4e be fd eb 08 be
       -0.12776129 0.12487772 -0.20155051 -0.13371272
000170 bd a0 67 be 36 87 41 3e 13 ad 9c be e7 90 5c 3e
       -0.2261991 0.18899235 -0.30600795 0.21539651
000180 4b 99 5f 3e cf a2 ff bd f8 cf d0 bc 3e a1 f3 bd
       0.2183582 -0.12482225 -0.025489792 -0.11895989
000190 3d 4f 4e 3d 44 e6 1b bd 05 10 a8 bd 65 83 82 3d
       0.050368536 -0.038061395 -0.082061805 0.06372718
0001a0 a7 63 c4 bd 3c 35 f8 bd b6 e8 20 be aa 16 ea 3c
       -0.0958932 -0.12119529 -0.15713772 0.02857526
0001b0 f8 10 68 3d 62 e4 c0 3d 15 d4 6d be 5a 0b ca bd
       0.056656808 0.094185606 -0.23225434 -0.098654464
0001c0 41 6f b2 bd ce f3 03 be af 70 fc bd ee 10 3e be
       -0.08712626 -0.12885973 -0.1232618 -0.18561146
0001d0 46 74 9e 3c 97 2c 21 be be 39 a6 3d 42 d1 14 3e
       0.019342553 -0.15739666 0.08116482 0.1453295
0001e0 1c 87 0f 3e e8 b1 9c be d0 94 53 3e d8 b0 6e 3d
       0.14016384 -0.30604482 0.20662236 0.05827412
0001f0 b3 88 4d bd 25 e0 e5 bd 58 bd 3b 3d b1 9e a9 bd
       -0.050179195 -0.11224393 0.04583487 -0.08282221
000200 e0 bd 2a 3d 85 2b 5a 3e da e9 a9 3d 37 d8 3e be
       0.041684985 0.21305664 0.08296557 -0.18637167
000210 18 69 2d 3d da d9 01 be 9b 50 51 3e f3 57 0b bd
       0.042336553 -0.1268076 0.20440905 -0.03401942
000220 ff 61 85 bc b2 6e 97 3c b4 38 4f 3d 01 cb 65 bc
       -0.01628208 0.0184854 0.050591186 -0.014025451
000230 09 c2 ec bd 52 21 27 be 00 bd 25 3e b4 0d 43 3e
       -0.11560447 -0.16321304 0.16185379 0.19048196
000240 e4 ff a2 bd b7 df 20 3e c2 69 26 3e 4a f0 68 bd
       -0.079589635 0.1571034 0.16251281 -0.056869783
000250 26 4e 05 be ea 76 09 be 3c 08 ba 3d 30 cd 9f 3d
       -0.13018093 -0.13424268 0.09083602 0.07802808
000260 8d d9 2d bd ae 34 4c 3e f3 fc 1e 3d dd e4 78 be
       -0.0424438 0.1994197 0.03881545 -0.24306054
000270 51 09 dc bb e5 06 ce bd 7d 70 91 3e e5 be 35 be
       -0.006714978 -0.10059909 0.28406134 -0.17748602
000280 97 1f e2 3c 20 db ca 3d 32 2f d6 bd 8c d9 6e 3d
       0.027602954 0.09905076 -0.104582205 0.058312938
000290 df f9 46 3d 46 c8 80 bd f9 52 bb bd b2 bc 02 be
       0.04857814 -0.06288199 -0.09146685 -0.12767294
0002a0 68 22 b4 bd 07 4f ad 3d 28 5b 4a 3d 41 05 0d bd
       -0.08795625 0.08462339 0.04940334 -0.03442884
0002b0 5d c1 80 3d 82 2d 66 be 64 3a 08 3e 15 57 0a bd
       0.06286881 -0.22478297 0.13303524 -0.033774454
0002c0 08 3b a7 bd 56 b7 39 3c b1 45 2b be 7e 25 6c bb
       -0.08165556 0.011335215 -0.16725804 -0.003603309
0002d0 e8 ed bd 3d b0 e0 c0 3d c4 c7 b3 bd fb 45 e8 3d
       0.09273893 0.09417856 -0.08778337 0.11341473
0002e0 c4 d4 ce 3e 25 23 24 be fb 0e dd 3d 85 cd 64 be
       0.40396702 -0.16029032 0.10793873 -0.22344024
0002f0 49 30 aa bd fa 86 28 be be d3 dd 3d 7a 69 7a 3d
       -0.08309991 -0.1645774 0.10831402 0.061135747
000300 64 76 1c 3e f1 0e 09 3d 05 8a 33 3c aa 85 e0 bc
       0.15279537 0.033461515 0.010958199 -0.027407486
000310 3a aa 6a bd 85 ce bc bd ad 5d ce bd e5 07 5f be
       -0.057291247 -0.09219078 -0.10076461 -0.21780355

fc2.weight f4 [150, 200]
000000 67 5e db 3c fd 7f ad 3c a9 77 21 bc 5a 8d 25 be
       0.026778413 0.021179194 -0.009855189 -0.16167203
000010 28 a5 53 3e 52 bd 34 3d f4 99 06 bc 8b cd 8e bb
       0.20668471 0.044125862 -0.008215416 -0.0043579987
000020 c9 dd 05 bc a4 2f 4e 3d 45 f8 96 bc 56 b6 91 bd
       -0.0081705535 0.050338402 -0.018428931 -0.07114856
000030 57 64 ef bd 5a 7b c2 bc 82 ec 23 3d 6f 56 2c bd
       -0.1168906 -0.02374046 0.040020473 -0.042074617
000040 b2 30 b8 bc 53 bb f3 bb 02 72 cb 3d 44 04 1d 3c
       -0.022484157 -0.0074381023 0.09933855 0.009583537
000050 88 4b 3b 3c 1e dd cf bc 46 93 96 bd fe 11 b1 3d
       0.011431582 -0.025373992 -0.07352309 0.0864601
000060 bc 72 8d 3d 6b c5 bf 3d 02 c9 c5 3d 0c 70 8f 3d
       0.069066495 0.09363826 0.0965748 0.07003793
000070 76 d2 58 bd b9 f4 b8 bd 5a c6 8d 3d 7d 2c 32 be
       -0.052935086 -0.09031052 0.06922598 -0.17399783
000080 1e b2 c7 3c 9c 73 a5 be f7 32 c7 3a 0c 5e a2 3d
       0.024376925 -0.32314765 0.0015197684 0.07928094
000090 21 69 cb 3d b1 0c 81 be 0f 0a 08 bd ec 54 04 3d
       0.09932161 -0.25204995 -0.033212718 0.03230755
0000a0 db 37 eb bc c3 f6 83 3d 30 af ae 3d f0 5d 09 bd
       -0.028713157 0.064435504 0.08529508 -0.03353685
0000b0 11 0a 00 3d 69 1a 4e be 4c ef b4 3d f7 42 b1 3c
       0.0312596 -0.20127262 0.08834705 0.021638377
0000c0 97 ce 82 bd e4 c1 a9 bc 71 bd 03 3d 38 5f 3b bc
       -0.0638706 -0.020722337 0.032163087 -0.011436276
0000d0 0d 38 ff bd c3 d3 ea 3c 35 92 ce 3d 47 9c a8 bd
       -0.12461863 0.028665429 0.100864805 -0.082329325
0000e0 e6 1a 81 bd c6 85 49 3d 85 02 45 3d 4e 44 a7 3d
       -0.063039586 0.049199842 0.048098106 0.08167325
0000f0 58 4b 74 3b 71 70 84 bc ce 23 da bd c8 3f 54 bd
       0.0037276354 -0.016166897 -0.106513605 -0.05181864
000100 ec e7 10 be 04 99 04 3d ae a8 b0 3d d8 94 2e 3e
       -0.14150971 0.03237249 0.08625923 0.17048967
000110 c9 99 05 bd 22 9d ab 3d 95 8f 1f be c1 a0 a0 bd
       -0.032617364 0.0837958 -0.15582116 -0.078431614
000120 70 2a 30 3d 72 ce a1 bc 68 a0 2b 3d e2 fe 15 bd
       0.04300922 -0.019751761 0.041901022 -0.03662003
000130 11 08 69 bd aa f8 26 be 14 6d 4a 3d 12 fd 8d 3d
       -0.05689246 -0.16305795 0.04942043 0.06933035
000140 55 ff 9f bd 61 72 22 bd a0 ed 55 3d f7 59 9f 3b
       -0.078123726 -0.03965986 0.05222857 0.0048630196
000150 30 ec be 3d ca 2e 84 3d b2 bb a4 bc 50 09 3b 3d
       0.09322393 0.06454237 -0.020109031 0.045663178
000160 2d ed 18 bd a9 85 86 bd cb 76 37 bd 22 5a d3 3b
       -0.037335563 -0.065684624 -0.044791024 0.0064499537
000170 e9 9f 63 bd 3b 75 91 bb 7c a9 25 bc e0 1d b5 3c
       -0.055572424 -0.004439024 -0.010111209 0.022108972
000180 bf c6 fb bd 00 4d d9 3d 60 ef a5 3d ea bf 4e bd
       -0.12293767 0.1061039 0.08102298 -0.050475992
000190 10 50 97 bc 5d e1 21 3e b4 a7 6e 3c c1 b6 8e 3d
       -0.018470794 0.15808626 0.014566351 0.06968451
0001a0 65 f3 88 3d 09 94 bb bd 5f f5 79 3d 00 1d 80 bd
       0.06687049 -0.09159095 0.06102502 -0.06255531
0001b0 51 0f 5e bc 08 7a 55 bd 54 5b 98 3c 2d bb eb bb
       -0.013553456 -0.05211833 0.018598236 -0.007193944
0001c0 4c 35 4e be eb 00 fd 3b ee 2b 48 bd 80 ee fc bc
       -0.20137519 0.0077210567 -0.04887002 -0.030875444
0001d0 11 c4 66 3d d9 ad 64 3d 6e a1 86 3d e4 de df 3b
       0.056339327 0.055829857 0.06573759 0.0068319906
0001e0 05 20 12 bd ce c9 82 bd 3a a3 83 3c 33 5a 39 bd
       -0.035675067 -0.063861474 0.016069043 -0.045252036
0001f0 a8 6a 69 3d 73 40 8c bc ba ce 94 be 95 65 20 be
       0.05698648 -0.017120576 -0.2906397 -0.1566375
000200 fe 32 3e 3d 67 ac 4b bd 6f 33 df bd 64 2f 1d be
       0.04643535 -0.049724963 -0.10898482 -0.1535011
000210 5d 56 e6 bb 6e b9 a2 3d 42 32 41 bd 65 65 91 3d
       -0.0070293383 0.07945524 -0.04716707 0.070994176
000220 73 99 4b bb 49 c3 66 3e be 7e d8 3d 5f 38 37 bd
       -0.0031066805 0.22535433 0.10571049 -0.044731494
000230 4e 7c 75 bd 47 f6 51 3d 5d b4 f8 3d 50 99 3c 3e
       -0.059933 0.05126026 0.121437766 0.18417859
000240 0c 51 a3 3d d8 5b c0 3c 2e 97 26 bc e0 1e a3 3d
       0.07974443 0.023481295 -0.01016788 0.07964873
000250 78 d2 e9 3d 50 a4 bb 3c cd 16 1f 3e 00 fd 8a bd
       0.11417097 0.022905499 0.15536042 -0.06786537
000260 05 63 aa bd da e0 7f bd 29 dd 7a bb 8c 0c 0d bc
       -0.08319668 -0.062470295 -0.0038278794 -0.008608948
000270 a9 c8 38 bd cf 39 0f 3e ad ff 0e bd 06 00 89 3d
       -0.04511324 0.13986896 -0.0349118 0.066894576
000280 5e 7d 42 3d 0b 81 2e be 6a bc 3f 3b a9 d9 f1 bd
       0.04748284 -0.17041413 0.002925659 -0.118090935
000290 98 8e b5 bc ec 19 df 3d c0 d9 b3 bc ca 2d 76 3c
       -0.02216272 0.10893616 -0.021954417 0.015025565
0002a0 3e da 2b bc 36 31 4d 3d 58 ed 14 3e cb f5 ad bb
       -0.010489045 0.05009576 0.14543664 -0.005308842
0002b0 1e ba 5b 3d 6c fd 83 3d 90 a9 d6 bb 51 46 9f 3d
       0.053644292 0.06444821 -0.006550975 0.07777084
0002c0 40 05 ab 3d 95 18 2d 3c 03 80 9a bd ee e3 c3 bd
       0.08350611 0.010564943 -0.075439475 -0.095649585
0002d0 e0 fd 25 3d 82 bb 01 be c8 0e cb bd 6a 9d 5a bd
       0.040525317 -0.12669185 -0.09914929 -0.053372778
0002e0 b6 3d 95 3d 1e bd db bd 57 93 db bc f3 56 ab bd
       0.07287161 -0.107294306 -0.026803656 -0.083661936
0002f0 b8 65 c2 bd 53 be 1e 3d ac 8b 8f bd 96 46 91 bc
       -0.094920576 0.038755726 -0.07009062 -0.017733853
000300 19 36 08 3c c6 30 16 3e f4 54 76 3d 41 04 91 3d
       0.008313679 0.14667043 0.06013961 0.070808895
000310 b6 5b eb bd 81 66 36 3d 64 f3 4b 3d a0 f6 aa bc
       -0.11492102 0.04453135 0.049792662 -0.020869553
000320 5f 62 1a 3c 5b 56 4d 3d c1 25 35 3c 2c b6 49 be
       0.009422868 0.050131183 0.0110563645 -0.196984
000330 61 65 f4 3d 96 5f 77 3e 76 5e ad bc 20 26 a7 3d
       0.11933399 0.24157557 -0.021163207 0.08161569
000340 8e 67 2a 3d ad ea 0d 3d 61 5e 24 3d 38 a5 89 bd
       0.041602664 0.034647632 0.04012907 -0.06720966
000350 0d 7f 8e bd 9b 22 05 be 60 cd 94 3d 46 54 cf 3d
       -0.06957827 -0.13001482 0.07265735 0.10123496
000360 74 72 56 3d 1e 6a 28 3c b4 35 38 3d 79 1e 3d 3c
       0.052355245 0.010279207 0.04497309 0.01154291
000370 0b 2b 6c bc f0 a6 ad 3d 50 6a 07 bd c9 fd 02 3e
       -0.014414559 0.084791064 -0.033060372 0.12792124
000380 f8 82 a3 3c 55 1a 61 bc c0 ce ed 3c 97 e5 cb 3c
       0.019959912 -0.013739188 0.02902925 0.02488975
000390 4b 78 eb 3d 6a af b6 3d fa 10 da 3d 9f dd de bd
       0.114975534 0.08920176 0.10647769 -0.108821146
0003a0 c7 d2 52 bc 41 48 de bd 94 e4 27 be 84 8c 70 3d
       -0.012867636 -0.10853625 -0.1639579 0.058727756
0003b0 33 0f 2e 3e 4f 68 43 bc 04 39 09 3d d2 ad 8c 3d
       0.16997986 -0.011926725 0.03350164 0.06869091
0003c0 1d 8d c3 3d c3 5c 87 bd dd 8a ec 3d 04 91 a8 bd
       0.095483996 -0.0660949 0.115499236 -0.082307845
0003d0 6a 39 4a bd 6d d1 04 be ba b0 b6 3d df 24 27 bd
       -0.04937116 -0.12970515 0.08920427 -0.040806647
0003e0 c7 56 f8 3b fb d8 ad bc 48 4a d0 3c 8d 41 d2 bd
       0.007578704 -0.021221628 0.025426045 -0.10266409
0003f0 4f c2 d2 bc ee 7c 7a 3d 21 de 41 bd 1f f4 53 3d
       -0.02572742 0.0611543 -0.04733098 0.051746484

fc2.bias f4 [150]
000000 4d 40 a5 bd 9a 40 77 3c 88 6c 27 3d ec 23 2f 3e
       -0.08068905 0.015091086 0.040874988 0.17103547
000010 91 37 f7 3b b8 cc 3b bb 46 b4 ba bd b8 bd ab 3d
       0.007544466 -0.0028655957 -0.09116416 0.08385795
000020 be 11 04 be a5 c2 b5 bc 6c 67 d3 3c a6 93 e9 3b
       -0.12897393 -0.02218754 0.025806151 0.007128197
000030 3e fc 23 3d 8f 6e 43 3b df 71 03 3e 75 12 49 bd
       0.04003548 0.0029820537 0.12836407 -0.049089868
000040 7e 98 12 3e a6 17 01 bd ab c0 97 bc e5 d9 86 bd
       0.14315984 -0.031516694 -0.018524488 -0.06584529
000050 d5 c0 1d 3e bc 61 2a bc 30 6c 3b bc 10 b3 a1 3d
       0.15405591 -0.010399278 -0.011439368 0.078954816
000060 ec 65 0f 3e 96 4c 81 bc 0f b2 c5 bd 04 01 be 3d
       0.14003724 -0.01578359 -0.096531026 0.092775375
000070 25 bc 87 3d 46 0d b6 3d 46 e2 0a bd f6 41 26 bd
       0.066276826 0.088892505 -0.033907197 -0.04059025
000080 65 dd 30 bc d9 59 90 bd 89 b0 8b 3b 82 19 85 bd
       -0.010794972 -0.07048387 0.004262988 -0.06499006
000090 e6 40 02 3d 4b 25 24 3d 62 29 7f 3d a0 30 78 bd
       0.031800173 0.040074628 0.062295325 -0.060593247
0000a0 b4 e7 b4 3c 07 60 51 bd 42 93 88 bd 11 01 b8 bd
       0.02208314 -0.05111697 -0.06668712 -0.089845784
0000b0 0a c8 70 3c 74 ae 21 3e 2b df d1 3d 8e 3a 3b bd
       0.0146961305 0.15789205 0.10247644 -0.04571014
0000c0 9e a7 d5 3d f5 87 99 3d ef 85 8a 3c 7c a7 81 bd
       0.10432361 0.07496635 0.016909568 -0.06330773
0000d0 2a 2e e3 3c 70 6a ac 3d d0 d5 3e bd d7 fe 09 be
       0.027731974 0.08418739 -0.046590626 -0.1347612
0000e0 59 ca 3d 3d 51 58 c4 3d bb 1d a8 3d 3b b5 d9 3c
       0.046335552 0.095871575 0.08208796 0.026575675
0000f0 f1 9d cf 3d 50 33 46 3e 18 36 00 bd 29 e0 b6 3d
       0.10137547 0.19355512 -0.031301588 0.08929474
000100 b2 8c 33 3e 46 30 21 3d ed 78 15 3e ec 59 4e bd
       0.1753414 0.039352678 0.14596911 -0.050378725
000110 62 25 65 3c d7 39 09 be 03 d2 0a bc a0 68 40 3d
       0.013985964 -0.1340097 -0.008472922 0.04697478
000120 1f 29 8b 3c 3e 72 94 3c 24 62 da 3c 65 ee 48 3d
       0.016987382 0.018120881 0.026658125 0.049055476
000130 96 8c 7b bc b3 04 76 3d 03 8e c2 bd f3 9e 23 3e
       -0.0153533425 0.060063075 -0.09499743 0.15978603
000140 50 7b 92 bc b4 e9 2f bd d2 96 62 bd 00 c3 aa bd
       -0.017881066 -0.042947486 -0.055319615 -0.083379745
000150 19 e2 33 3d 92 c0 a6 3d 14 eb 38 3d 69 eb a6 bd
       0.043916795 0.081421986 0.045146063 -0.0815037
000160 34 05 8e 3c b5 f3 00 bd c4 30 5d 3c 30 69 04 bc
       0.017336465 -0.031482417 0.013500396 -0.008081719
000170 d4 48 d7 bc 00 9a 81 3d 28 29 6e 3d 16 51 ec bd
       -0.026279844 0.06328201 0.05814472 -0.115389034
000180 d5 df 6e bd 24 57 96 bc 74 a6 4a bd 03 6f ca 3d
       -0.05831893 -0.018352099 -0.04947515 0.09884455
000190 05 34 d4 3d 01 64 98 3c a2 0b 7f bd fc 15 18 3e
       0.103614844 0.018602373 -0.062266953 0.14852136
0001a0 84 3d 8e 3d 97 e8 8b 3d b9 bb 19 be 55 50 52 3e
       0.06945327 0.06831472 -0.15013017 0.20538457
0001b0 bd a3 ad bd 2c b1 b9 bc d4 2a 5d 3d 01 6d 39 3c
       -0.08478496 -0.02266749 0.053995922 0.011317492
0001c0 d5 b0 53 bd 5c 89 7a 3d 61 b9 10 3e 0e 84 2f 3e
       -0.051682312 0.061166152 0.14133216 0.17140219
0001d0 98 f2 18 3e a3 e1 90 bd f0 3f a9 3d e8 cf c4 3d
       0.14936292 -0.07074287 0.08264148 0.096099675
0001e0 54 6f 0b 3c 5c aa cb 3c b9 c5 a2 ba 45 29 95 3d
       0.008510429 0.024861507 -0.0012418545 0.07283262
0001f0 da 94 2d 3d 0b 78 2a 3e c4 ee b0 bd 05 68 17 be
       0.042378284 0.16647355 -0.08639291 -0.14785774
000200 43 aa b0 3c ed 41 ad 3b 5c 24 15 bd 36 b9 e1 3d
       0.021565562 0.0052874 -0.036411628 0.11021654
000210 e0 2a 34 bd 0f a2 bc bd a5 c8 9e 3c b1 31 df 3d
       -0.0439862 -0.09210598 0.019382784 0.1089815
000220 ce 94 ac 3d 33 c5 3a 3e e9 b2 8d 3c fb 56 93 3c
       0.0842682 0.18239288 0.017297225 0.017985811
000230 10 e4 31 bb 3a 44 72 3d cf 5f 43 bb bc 13 a5 3c
       -0.0027143992 0.059147097 -0.0029811745 0.020151012
000240 76 83 af 3c 03 f2 16 3e 68 c5 b2 bd 17 10 e1 3a
       0.02142499 0.14740758 -0.087290585 0.0017170933
000250 a7 2f 2d 3d 3a 71 2e 3d
       0.042281773 0.04258845

fc3.weight f4 [2, 150]
000000 e5 65 86 3d cd dc 6f 3d 5d 27 88 bd 81 69 a5 3c
       0.065624036 0.05856018 -0.06648133 0.02019191
000010 5c ea 87 3d 44 28 2b 3e 40 80 33 3d 63 b9 e3 3d
       0.066364974 0.16714579 0.04382348 0.11119344
000020 be 7e 6c 3d 73 f3 f6 3c fa bf 8b 3d f2 10 9c 3d
       0.05773806 0.030145383 0.06823726 0.076204196
000030 51 de a8 bd 73 35 9a bc d8 91 d3 3d bb ca 7c 3d
       -0.082455285 -0.018824315 0.10330552 0.061716776
000040 39 27 94 3d 21 a1 b1 bd 59 f8 33 bd 6b 11 8d bd
       0.07234044 -0.08673311 -0.043938015 -0.06888088
000050 6f 30 60 bd ed e3 10 bd cd ca 85 3e 5c b9 34 be
       -0.05473369 -0.035373617 0.26131287 -0.17648834
000060 e9 4a 37 3d bd 68 29 3d ce 54 52 bc bd 78 24 3c
       0.044749174 0.04135965 -0.012837602 0.010038552
000070 0d de b4 bd dc fc 1e 3e ab 11 60 3d a6 05 89 3c
       -0.08831415 0.15526146 0.05470435 0.016726326
000080 12 d1 30 3e b0 93 e7 3c 52 9b 49 3e f3 f5 51 3d
       0.17267254 0.028268665 0.19688156 0.051259946
000090 6b ab b1 3d 29 81 94 3e c1 7c 95 3d d6 41 a6 bd
       0.086752735 0.2900479 0.072991855 -0.08118026
0000a0 66 df ca 3d 30 a9 c5 bd 36 ae 87 bd 79 92 96 bd
       0.09905891 -0.096514106 -0.06625025 -0.07352156
0000b0 9f fa 5c bd 35 3c 58 3c 14 7c 9b 3d 3c 8f 92 bd
       -0.05394995 0.013197948 0.075920254 -0.07156226
0000c0 7b b4 fe 3d 88 fb 05 3e 52 9e 55 3d b9 70 24 3e
       0.12436768 0.13084233 0.05215294 0.16058625
0000d0 25 61 2c 3c 52 e4 9f bd be 9d c8 3e d3 1e 28 3c
       0.010521208 -0.078072205 0.39182848 0.010261255
0000e0 c7 2d a8 bd 5c bc 33 3a 59 fa 3a 3d 55 72 4c bc
       -0.08211856 0.0006856376 0.045648906 -0.012478431
0000f0 ca 51 b2 3d ae 75 82 bc 06 30 a4 3e 61 ef 32 3e
       0.08707006 -0.015925255 0.3206789 0.17474128
000100 79 f3 49 39 be 27 74 be ff 4e 3e 3d 2d 82 8f bd
       0.00019259554 -0.23843285 0.046462055 -0.07007251
000110 46 b8 d3 3d dd 0c 07 bc 0c 95 72 3e f0 6a b8 bd
       0.10337882 -0.008242813 0.2368967 -0.09004772
000120 5c 79 e3 bd 63 d9 b9 bd 66 26 c6 3d c7 53 9a 3d
       -0.11107132 -0.09074666 0.09675293 0.075355105
000130 1d bf 51 3e d6 a8 bb bd 6e 4e 85 bd bf f2 2f 3d
       0.2048306 -0.09163062 -0.065091 0.04295611
000140 2f 9c 4d 3e 50 8d 57 3e b6 3e 97 bd 72 b9 65 bd
       0.2007911 0.2105 -0.07385008 -0.056085058
000150 4e 06 68 bd 98 b8 7c 3e d5 bd f2 3d b3 7d 29 3d
       -0.056646638 0.24679792 0.11852614 0.04137964
000160 14 9c 9a be e5 31 0a 3e e6 df b7 3d e0 16 38 be
       -0.30197203 0.13495596 0.08978252 -0.17977476
000170 bd ac a1 bd 70 b9 8f bc 66 db fb 3d 38 aa bc 3b
       -0.07894275 -0.017544478 0.12297706 0.0057575963
000180 d9 7f 94 bd 35 85 0a 3e b6 72 b7 bd 12 42 1b 3d
       -0.072509475 0.13527377 -0.08957426 0.037904806
000190 11 20 0b 3e a0 1d 92 3d 8a 13 f4 3b 91 31 a0 3d
       0.13586451 0.07134557 0.0074486183 0.07821954
0001a0 cf e6 1c 3e 4f 38 3c 3d 1b 76 0f 3e 21 c8 10 3d
       0.15322421 0.045952138 0.14009897 0.035347108
0001b0 16 ee da 3d bd 19 66 bd 42 31 8b 3d 20 f8 26 3e
       0.106899425 -0.05617689 0.067965046 0.1630559
0001c0 ed 08 31 be db 73 55 3d 39 60 5a 3e 32 4c 03 3c
       -0.17288561 0.05211244 0.21325769 0.008013772
0001d0 7b 2b e7 3d c0 00 97 bd d6 4c ba 3d f7 12 46 3e
       0.1128759 -0.0737319 0.090966865 0.19343172
0001e0 3b 99 5c 3e 5d 06 9a bd 54 d6 5d 3e c1 59 c0 3d
       0.21542828 -0.07520745 0.21663791 0.09392119
0001f0 78 be 99 3d af 9d 29 3e 3f 2e c9 bc 8a 81 b7 bc
       0.07507032 0.16564058 -0.024558185 -0.022400636
000200 2d b6 88 bd ad ca b0 3d 21 86 98 bd 3f c1 a1 3c
       -0.06675372 0.08632407 -0.07447458 0.019745467
000210 a6 51 b0 3c ea 23 24 3e d3 42 06 3e 69 50 be 3d
       0.021523308 0.16029325 0.13111429 0.09292681
000220 42 ad 19 be 93 09 38 3d 4d a3 89 bd 95 31 ee 3d
       -0.15007499 0.044931006 -0.067206 0.11630551
000230 cb 9d d5 3d eb 4c 48 bc f4 08 ac bd 3a fc 77 3e
       0.10430487 -0.01222537 -0.08400145 0.2421731
000240 64 ca 83 bc 9f fd 87 3e f5 05 96 3d 1b 98 99 bd
       -0.016087718 0.26560685 0.07325355 -0.07499715
000250 8f 34 9b 3e 10 82 3b 3d 2d 75 b7 3d 67 c7 8a 3d
       0.30313537 0.045778334 0.089578964 0.06776314
000260 f9 6a 1a 3d 9c 25 7c be 1e 97 1f 3e 38 26 69 3d
       0.037699673 -0.24623722 0.1558499 0.056921214
000270 f2 b8 1e 3e e1 64 f9 bd 6b 59 0b 3e 50 25 8f 3d
       0.15500239 -0.12177444 0.13608329 0.06989539
000280 21 72 cf 3d 27 79 69 be 9c 3f 9a 3d d3 d6 cf bc
       0.1012919 -0.22800122 0.07531664 -0.02537099
000290 25 2a 18 be 67 c4 99 3d 21 03 55 be 2e 97 08 3d
       -0.14859827 0.07508164 -0.20801975 0.0333473
0002a0 1c b7 80 3c f1 16 0b 3c a6 e5 ae be f2 25 fa bd
       0.015712313 0.008489356 -0.34159583 -0.12214269
0002b0 61 7f 2d 3d ef e8 66 3e 9f 95 2d be 5d ee af 3d
       0.042357806 0.22549795 -0.16951607 0.08590386
0002c0 01 57 d9 3d 3e 9f cb be d5 f9 44 3d 05 98 5b be
       0.10612298 -0.3976993 0.04808982 -0.2144471
0002d0 87 4f 36 be db 5d 1b 3e d1 97 f6 bd b5 e0 af 3d
       -0.17803775 0.15172522 -0.120406754 0.08587781
0002e0 f0 6f f6 bd 69 94 d4 3d 70 8c b3 3d a4 dd 07 be
       -0.12033069 0.103798695 0.08767021 -0.13268143
0002f0 02 16 85 be f8 e7 1e 3d 4a 4b 2b 3e 8a 1a a3 3d
       -0.25993353 0.03879544 0.16727939 0.07964046
000300 73 83 2a 3d b9 e9 93 3d c2 06 aa bd c4 32 79 be
       0.041629266 0.072223134 -0.0830207 -0.24335772
000310 71 ce a9 bd d6 71 a7 3d bf 61 6d be 08 66 b1 bd
       -0.08291329 0.08176009 -0.23181818 -0.08662039
000320 e4 d6 32 be 53 69 65 3e 8b ad ac be bb 79 84 be
       -0.17464787 0.22403459 -0.33726153 -0.25874123
000330 40 c5 01 bd 30 e3 37 3e 4f 5b 7b 3d ad ea a9 be
       -0.031682253 0.17957759 0.061366376 -0.33186856
000340 e9 22 5f be 2e 00 63 be a7 a1 9a be fe 1e 6e be
       -0.21790661 -0.22168037 -0.30201456 -0.2325401
000350 99 fd 0f 3e a8 9e 05 be 60 bf 7f be 16 6d 82 be
       0.14061584 -0.13048804 -0.24975348 -0.2547385
000360 53 94 40 be e8 8b 62 3e ca cc 8b bd 1f 23 8e 3e
       -0.18806581 0.22123682 -0.0682617 0.2776117
000370 6f 69 97 3d 95 7d cc 3d 8e 3d 26 3d 96 0f 4d bd
       0.07393157 0.0998489 0.040586047 -0.050063692
000380 97 20 6f be 9e 70 39 be 56 40 98 bd 47 33 89 3d
       -0.23352276 -0.18109366 -0.07434146 0.066992335
000390 ba 23 48 3d cc a2 74 be 03 fc 16 be a8 7f 2a bc
       0.048862197 -0.23890227 -0.14744572 -0.010406412
0003a0 6c 8b 15 3d b9 b9 99 bc 63 7d fe bd 00 d4 3f 3e
       0.036509916 -0.018765317 -0.12426259 0.18733215
0003b0 64 13 74 3d 50 b3 c1 3d 1e 84 dd 3d ec bb 33 be
       0.059588805 0.09458029 0.10816215 -0.17552155
0003c0 80 8c e1 3c 38 2d bb bd 78 67 6c 3d 9b 2b 07 be
       0.027532816 -0.09139484 0.057715863 -0.13200228
0003d0 2a 1a 15 bd 76 fb f8 3d bf 52 60 3d 69 5c 1c be
       -0.036401905 0.12157337 0.054766413 -0.15269627
0003e0 14 81 52 3d 61 55 87 be 50 dd ee bd 4b 84 10 be
       0.05139263 -0.26432326 -0.11663306 -0.14112966
0003f0 7b b0 e6 3d fe 39 2c be 5f 32 32 3d d0 ab 3e be
       0.1126413 -0.16818997 0.04350507 -0.18620229

fc3.bias f4 [2]
000000 6c 0e 86 bd 50 d6 a5 bd
       -0.065457195 -0.080975175
